best5000-sim.onnx (onnx, 526544 bytes, 115 tensors)

518 f4 [4]
00000000: 0000 803f 0000 803f 0000 0040 0000 0040
1.0 1.0 2.0 2.0

523 f4 [1, 3, 1, 1, 2]
00000000: 0000 2041 0000 5041 0000 8041 0000 f041
00000010: 0000 0442 0000 b841
10.0 13.0 16.0 30.0 33.0 23.0

529 f4 [1, 3, 1, 1, 2]
00000000: 0000 f041 0000 7442 0000 7842 0000 3442
00000010: 0000 6c42 0000 ee42
30.0 61.0 62.0 45.0 59.0 119.0

535 f4 [1, 3, 1, 1, 2]
00000000: 0000 e842 0000 b442 0000 1c43 0000 4643
00000010: 0080 ba43 0000 a343
116.0 90.0 156.0 198.0 373.0 326.0

model.0.conv.conv.bias f4 [8]
00000000: 5c50 a9be 9e1e 19be e13d 06bf 8c24 20bf
00000010: ceb9 99be 9061 08bf d8c1 0bbe d13e a83f
-0.33069122 -0.14953086 -0.5243817 -0.62555766 -0.3002457 -0.5327387 -0.13648164 1.314417

model.0.conv.conv.weight f4 [8, 12, 3, 3]
00000000: 2d55 d43e 797c 193f 13af bdbe 5d2d c6be
00000010: c459 9fbe 50a2 8bbe 4ed6 5d3f b1c2 4d3f
00000020: 2dc2 843d 45e6 2c3e 688e 04be 5a6f cbbe
00000030: 3f0f 17bf 92ea 00bf b18a 1ebf a45a 843f
00000040: 83cb 473f a54c 513f b1fa fcbe eeca d9be
00000050: ed6b 5cbe ab23 e7bd 3ec5 57bf 0354 f8be
00000060: 6135 0040 9f52 ca3f 1b40 f13f 7959 a8be
00000070: 2a3c b9be 96bd b9be 3938 013f 8789 423f
00000080: 1c52 81be 60b3 91bf 40c9 b4bf b040 dfbf
00000090: 8157 8cbe 3530 c73e 378f c4bd 69db 713f
000000a0: c976 973e 6bdf 4ebd 8f2c 06bf 3f0f 97bf
000000b0: 7f1b 80bf f3e7 51bf 6821 d4be 93c7 0fbf
000000c0: 6744 453f de14 f43e 7eae 4f3f 9b7f 113f
000000d0: bf97 c73d a02f 593c 595a 0d3f ce93 0fbd
000000e0: e8de 85bd 7ff8 0ebf 468b 0cbf 7f53 2fbf
000000f0: 2c9b 363f 60b3 113f 3bac bc3d 7755 cb3d
00000100: ee25 7a3e 3f6a 37bf 0e7d 07be 652b aabd
00000110: 21bc e6bb 4f43 8e3f 4283 523e 1827 563f
00000120: 449c 6dbd fd21 423e 7a36 37be b0d0 80be
00000130: 95e0 2abf 57fb 8fbf f6a5 cc3f 6190 a03f
00000140: 5810 ce3f cbea d23e 20ca 993e 104c 63bf
00000150: 7b4b f53e dbfb 583e 9f52 4a3e f8cc 9abf
00000160: 5c88 66bf 56d4 c1bf eb9c 003e 6948 a23d
00000170: ff48 10be 6e88 0b3f 64a9 3bbe 8f79 733e
00000180: dbfb d8be 7f1b 00bf 8f64 35bf 7afe 87bf
00000190: bc7e acbe 9f3d 0cbf cc8f b23e 4d77 e03e
000001a0: d9f7 fb3e c3d7 30be 0816 d0be 4e9e 2ebc
000001b0: 3de2 f7be 5500 19be 00e2 f2be 04f3 233e
000001c0: 6d2a 25bd 5453 983e 165f 7e3f 1853 133f
000001d0: a306 0c3f 294f 523f 76db 7a3f 826a 4b3f
000001e0: 42dd 8e3e c645 1e3e 5907 9bbe 585a 1a3e
000001f0: c1ce 00bf f513 01bf 9c68 a3bd 9bbb a2be
00000200: a755 00bf 1c8d cbbe df8c c6be 447f 02bf
00000210: ba30 98be a9ed c4be 97aa 71be 7f10 cabe
00000220: adf4 c6bd ea31 b1be 0837 0b3f 0426 5a3f
00000230: 7a5c 473f 3ed6 8c3f 51bc b13f 581d 353f
00000240: 797c 903d 144c 913e f509 d23e 1078 c53d
00000250: 9824 3cbe d8ee ddbe 4225 01bf a8ba 0ebf
00000260: 2c19 efbe 8b25 d03d 03b6 bebd c63b 6fbf
00000270: d8b1 783e 73c8 0dbf 7b1e 04bf 0bc4 c2be
00000280: 2056 0abf fce4 1fbf e984 30bf c017 d1be
00000290: ce86 d8be ca4c a03d 6f7a f73c 18c3 ae3d
000002a0: 7b1e 043f c678 543f 963a 563f e176 2c3f
000002b0: a7d0 a83f 1d3a 4c3f 37fb 3ebe d307 a53e
000002c0: f1cf 19be 9149 6ebe d2ca bf3d 716e 0cbf
000002d0: 4aeb 92bd b355 4abe e9b7 e6bd 4310 c5bd
000002e0: acb7 61be 0e1e c4be e360 92be e1fb 03bf
000002f0: b53f 30bf 79e2 fcbc 00e2 723e 8671 cdbd
00000300: 2f7d 9f3e 7438 293f 44f0 fb3d 826a 4b3f
00000310: 07bd 403f 3f46 283f 320a 573e 4ae1 e33e
00000320: 7fa0 2e3e ba30 983e 83e4 95be 44bd c5be
00000330: f055 cfbe 33c1 86bd ab14 10bf 294f d23d
00000340: db48 5fbe c27b 01bf 305d d6bd 8671 cdbe
00000350: fce4 9fbe 6cb0 dabe 3922 0abf 1dfd e6be
00000360: 8c3e 37bf 8adc b8be 9066 4f3f 2b23 6fbe
00000370: b936 c73d 3e28 5e3f e468 3d3f 8187 5b3e
00000380: ffc4 a6bf ee1f 993d 09e0 1dbf f8d1 c7be
00000390: 6c25 9b3f ef83 343f ff8c dd3d a667 0440
000003a0: aa8a 6f3f 0356 07bf 12fd b13e 5c80 8dbe
000003b0: 8618 bc3e 19e9 46bf a272 88bf dc77 7bbf
000003c0: 1d44 fb3e fcf9 df3e 2040 c1bf 3efc 0b3e
000003d0: 0c0f 003f 6e82 6cbb f149 4e3f b50e afbe
000003e0: a7c6 72be c977 393e df42 c2bd 3df7 debe
000003f0: 6abe 6f3f 01f4 88bb 262e f3be 7c61 e03f
0.41471234 0.59955555 -0.37047634 -0.38706484 -0.31123173 -0.27272272 0.8665513 0.803752
0.064823486 0.16884716 -0.12944949 -0.39733392 -0.5900764 -0.50357926 -0.61930376 1.0340161
0.7804491 0.81757575 -0.49410012 -0.42537636 -0.21525545 -0.112861 -0.8428534 -0.48501596
2.003258 1.5806464 1.8847688 -0.32880762 -0.36178714 -0.36277455 0.50476414 0.759911
-0.25257957 -1.1382866 -1.4123917 -1.7441616 -0.2741051 0.38903967 -0.095976286 0.9447542
0.29582813 -0.050506037 -0.5241174 -1.1801528 -1.0008391 -0.8199455 -0.41431737 -0.561639
0.770575 0.4767217 0.8112563 0.56835335 0.0974574 0.013255984 0.55215985 -0.035053067
-0.065366566 -0.55847925 -0.54900014 -0.6848678 0.71330523 0.5691433 0.09212538 0.099284105
0.24428532 -0.71646494 -0.13231298 -0.08309058 -0.0070414697 1.1114291 0.20557883 0.836534
-0.058010355 0.18958278 -0.17891875 -0.25159216 -0.66748935 -1.1248578 1.5988147 1.2544061
1.6098738 0.41194758 0.30037022 -0.8878794 0.4790915 0.21189825 0.1975808 -1.2093801
-0.9005182 -1.5142925 0.1255986 0.079239674 -0.14090346 0.5450505 -0.18326336 0.2377684
-0.4237965 -0.50041956 -0.70856565 -1.0624535 -0.3369044 -0.54781526 0.34875333 0.4384102
0.4921253 -0.17269807 -0.40641809 -0.01065786 -0.48414794 -0.14941533 -0.4743805 0.16010672
-0.040323664 0.29751074 0.9936384 0.57548666 0.54697627 0.8215204 0.9799112 0.79459393
0.2790318 0.15456304 -0.30279043 0.15073526 -0.5031548 -0.50421077 -0.07978937 -0.31783757
-0.50130695 -0.39756095 -0.3877935 -0.5097544 -0.29724675 -0.3846257 -0.23600231 -0.3946571
-0.09714637 -0.34608394 0.54380846 0.8521426 0.77875483 1.1002882 1.3885595 0.707479
0.07054991 0.28378356 0.41023222 0.09642041 -0.18373334 -0.43346286 -0.50447476 -0.55753565
-0.46698892 0.10163411 -0.0931206 -0.9345058 0.24286592 -0.55383986 -0.5160901 -0.38040194
-0.54037666 -0.6245878 -0.68952805 -0.40838432 -0.42290348 0.07827146 0.030209748 0.08533305
0.5160901 0.82996786 0.83683145 0.67368895 1.3188676 0.79776174 -0.18650518 0.32232532
-0.1502073 -0.23270251 0.09364857 -0.5485602 -0.07173784 -0.19759254 -0.11265547 -0.09622242
-0.22042722 -0.3830418 -0.28589544 -0.5155621 -0.6884721 -0.03086971 0.23719025 -0.100314185
0.31150195 0.66101766 0.123016864 0.79459393 0.7528843 0.6573219 0.20999983 0.4450782
0.17053412 0.29724675 -0.29275903 -0.3862096 -0.40495253 -0.065798186 -0.56281537 0.10269005
-0.21805136 -0.50579464 -0.10466993 -0.40125674 -0.3122939 -0.42712724 -0.5395847 -0.45114985
-0.71579814 -0.36105758 0.8101587 -0.2335326 0.097272344 0.86780155 0.73988175 0.2143841
-1.3028868 0.07476793 -0.61669976 -0.3902738 1.2120795 0.70513815 0.108179085 2.0688262
0.9357096 -0.5286562 0.3476339 -0.27636993 0.3673746 -0.7769943 -1.0659983 -0.98229766
0.49075404 0.4374541 -1.5097694 0.13670442 0.5002296 -0.0036088484 0.80581576 -0.34190908
-0.23708592 0.181121 -0.09485411 -0.43548003 0.93649924 -0.004179478 -0.47496146 1.752975

model.1.conv.bias f4 [8]
00000000: c3b5 3a3f 1507 4e3f bef8 ea3d 06d4 ef3e
00000010: c098 263f 8375 d7be 9052 283f 9d5e 163e
0.72933596 0.80479556 0.11473225 0.4684145 0.6507683 -0.42081842 0.6575098 0.1468453

model.1.conv.weight f4 [8, 8, 3, 3]
00000000: c402 983c 536d 5abc a4a7 e63c f3eb 94bd
00000010: 5998 30bc 2dd0 da3c 31da 09bd 7077 ca3c
00000020: 5f93 6cbd 4bd5 f9bd 0f12 4ebe cffd 60be
00000030: 37a6 00bc ba49 10bd 554c 40be d0b1 7dbd
00000040: f779 c6bd 1caa bbbd 85ee 2a3e 39b4 ab3d
00000050: a23a 5cbd abfd 053e 5b47 7c3c 9352 02be
00000060: f9e1 7f3d fc37 123e ab44 183e 6726 fc3d
00000070: 20af 99bc 0cec 553d 9965 0bbe f8eb 21be
00000080: ecc5 8fbe 3d00 9cbc a5d2 2fbd ce49 44bd
00000090: 4605 073d 1bf1 4dbc b223 8bbd c895 9a3d
000000a0: c84e 083e a91e 203c 71e9 25be 171c 0abd
000000b0: 1e89 213d 8c14 b0bd c7dc ac3d a865 323d
000000c0: e70c 953d 4521 d03d a91e a03d 1baf 0c3e
000000d0: 1133 753d 4200 a93d 7f35 30be bf8b 5ebe
000000e0: a781 fbbd 76a2 a0bd 20f1 dabd f7c0 d83c
000000f0: ec4e 633e 31da 093e 6d9d 353e a7f8 27be
00000100: 39b4 2b3e 4f21 ea3d f107 de3b 7f7c c2bd
00000110: 7aee 10be 1942 023d c390 bc3d 25af 26bd
00000120: fbfd 39bb b4d0 e1bd f11f 1cbd 17ae 8fbd
00000130: 61c8 76bc ade4 5dbd c98d fabb 3c3d 9a3c
00000140: f512 93bc c98d 7abb cc8c a9bd 5eda 0abd
00000150: 208c e73b 3456 95bd da65 0e3c 4623 08be
00000160: 4a13 2ebe 71a0 8abd 54f8 04ba 2285 f43d
00000170: 8759 bb3d abef b83d 5dd6 5c3e 729c 223e
00000180: 7980 d63b f40c f13d 3451 d03d e144 fdbd
00000190: 9d12 ecbd cd83 7cbc cb8a ef3b 7f6b 7dbd
000001a0: 13ba 813c 4225 f0bc c4a7 18bd 885c 0cbc
000001b0: a10d 333d 5dd2 743d 8e48 103c 5be2 14bd
000001c0: fef7 a33c 5bd9 e73c 3063 1ebc a7f4 f13d
000001d0: 4b10 a33d 2678 ebbb 3651 163d dd5b 10bd
000001e0: 13b5 3cbd 4225 f0bd a10d b3bd a8f5 cebd
000001f0: f511 b6bd eb2b 483d 3848 af3d cd84 d93d
00000200: 9136 7c3c c2ac 973d 8c48 ca3d 1aa1 40bc
00000210: de52 633d 9a1c 6a3b 59e7 13bd ce85 b63b
00000220: 9a1c 6a3c 00f1 30bb da5c e13d e640 a13c
00000230: 9238 363d 04df e23d f319 063d 7787 493d
00000240: 6a88 9bbd 5416 40bd 0ddf 2ebd 4b18 903c
00000250: 8ebc 0d3e 57bd a8ba 1798 69bd 2482 aa3d
00000260: 74b7 eb3d 3213 a13c 689c bd3d fcba 243e
00000270: 1984 c73c dd8f 0e3d 3608 753c b1ab d7bd
00000280: ff61 8dbd d855 12be 6a43 26be 87c7 d3bc
00000290: c48a 9fbc dab7 05be c414 8abc 6afe 303d
000002a0: ef9f c3bd 0d24 243d a51a 143e e703 d4bd
000002b0: deac 59be 495d 52be 1ca1 45bc e45c eb3d
000002c0: 0674 5fbd bcbd 0f3e c7d8 3d3d 9861 f3bc
000002d0: dec0 2ebe 9789 1dbe 9327 f7bd 8434 c03c
000002e0: 00f5 6d3c e68d 3e3e 78d4 9c3d bcda 5a3e
000002f0: 70f3 b73e f7b1 483c d886 b2bd 65c4 b4bc
00000300: 707d a23d 51f9 c13d a011 b83d 762d 343d
00000310: b08e 0c3e 87b3 7e3e 08a5 323c 900a 793d
00000320: d060 d83c a590 29bd 4b8e 253d 2a32 3c3c
00000330: 6b1b fc3d 3aaf 103e c13c 013e b321 203d
00000340: 54d1 ca3d 1505 89bd 2db1 fa3d 9e25 dabd
00000350: dc4a 66be 9744 a8bc ef15 d93c 920a 2cbe
00000360: 5fc9 39bc 5c7d c2bd 7f72 053d 5399 5cbc
00000370: edc0 3a3d 56e5 d33d 7761 9d3c 2404 ea3c
00000380: f81d 9a3d 846f 1fbd 4e01 6e3b a30f c43d
00000390: c282 e63c c63c 303e 43da 373d 6f23 b33c
000003a0: 64f3 553d 3c01 f9bd 6fb5 e0bd 39b3 01be
000003b0: 19a5 8abd c747 57bd 5b72 9bbd 3a5b fd3c
000003c0: cddf 45be c282 66be de0c 3dbe f677 9e3d
000003d0: 4ed4 eb3d 1e34 523c 4d91 9bbc 60d4 e0bd
000003e0: 33b8 e7bd 47f9 2c3d 9a2b debd bf6c 18be
000003f0: 5deb 94bd 196f e1bd b4d7 0fbe c504 07be
0.018556006 -0.013331729 0.02815611 -0.07271566 -0.01077851 0.026710594 -0.03365535 0.024715155
-0.05775773 -0.121988855 -0.20124076 -0.2197182 -0.007852129 -0.03522656 -0.18779118 -0.061937153
-0.09691232 -0.09163305 0.1669255 0.08383984 -0.053766854 0.13085048 0.015397872 -0.12726812
0.062471364 0.14279169 0.14869945 0.12312012 -0.018760264 0.052227065 -0.13612975 -0.15812671
-0.2808069 -0.019043082 -0.042925496 -0.047921948 0.032964014 -0.012569691 -0.06793918 0.075481
0.13311303 0.009772935 -0.16202332 -0.033718195 0.039437406 -0.08597669 0.084405474 0.04355398
0.072778516 0.10162596 0.07818348 0.13738672 0.059863154 0.08252002 -0.17207907 -0.21732996
-0.122805886 -0.07843487 -0.10690522 0.0264592 0.22198075 0.1346214 0.17735834 -0.16403447
0.16767968 0.11432134 0.006775849 -0.09496402 -0.14153472 0.031801317 0.092072986 -0.040694375
-0.0028380144 -0.11026135 -0.0381164 -0.07015627 -0.0150624225 -0.05417316 -0.0076462966 0.018828027
-0.017953375 -0.0038231483 -0.08278808 -0.033899657 0.0070662647 -0.072918326 0.0086912755 -0.13294706
-0.16999546 -0.06768883 -0.0005072404 0.119394556 0.09147935 0.09030088 0.21566148 0.15879992
0.006546077 0.11770049 0.10171738 -0.12366653 -0.11526988 -0.015412283 0.0073102466 -0.061870094
0.015835797 -0.02931464 -0.03726937 -0.008566983 0.04371417 0.05977093 0.008806361 -0.036348682
0.020015713 0.028301885 -0.009667203 0.11814242 0.07962092 -0.0071859537 0.036698543 -0.035243858
-0.046071123 -0.11725856 -0.08742834 -0.10105449 -0.08890144 0.04887001 0.085586965 0.10621033
0.015393869 0.07405998 0.098771185 -0.01175716 0.05549895 0.0035722614 -0.036109302 0.00557015
0.014289046 -0.0026999116 0.11004038 0.019684266 0.044487543 0.11077693 0.03273959 0.049201455
-0.07594378 -0.046896294 -0.042693187 0.017589709 0.13841459 -0.001287381 -0.05702981 0.083256036
0.115096 0.019662473 0.09258348 0.16086954 0.024354981 0.034805167 0.014955571 -0.105307944
-0.06903457 -0.1429056 -0.16236654 -0.025851978 -0.019475348 -0.13058415 -0.016855605 0.04321138
-0.09551989 0.040073443 0.14463289 -0.10352307 -0.2125735 -0.20543398 -0.012062337 0.11492327
-0.054554008 0.14037222 0.046349313 -0.029709622 -0.1706576 -0.15384518 -0.12068095 0.023462541
0.014523745 0.18608817 0.07657713 0.21372503 0.35927916 0.012249461 -0.08717126 -0.022066304
0.079340816 0.094713815 0.08987737 0.043988667 0.13726306 0.24873172 0.010903604 0.06080109
0.026413351 -0.04139771 0.040418904 0.011486569 0.12309917 0.14129344 0.12620832 0.039094638
0.099032074 -0.066904224 0.12240825 -0.10651706 -0.22489494 -0.020540519 0.026499717 -0.16800907
-0.0113395145 -0.09496567 0.032579895 -0.01346429 0.045594145 0.10346477 0.019211514 0.028566428
0.07525247 -0.03892471 0.0036316696 0.09573295 0.028138522 0.17210683 0.044885885 0.021867482
0.05223407 -0.121584386 -0.10972106 -0.12666024 -0.06769771 -0.052558687 -0.07590171 0.03092729
-0.19323654 -0.22510818 -0.1846194 0.077377245 0.11515103 0.0128298085 -0.018990183 -0.10978007
-0.1131443 0.042229917 -0.1084816 -0.14885233 -0.072714545 -0.11007518 -0.14047128 -0.13185413

model.10.conv.bias f4 [32]
00000000: 013a ce3d 985d d23d ddba b53e b0c3 813d
00000010: 6eb8 383e 77b5 243e 07c2 32be 6a72 723e
00000020: 4f56 b9bd 71c7 24be 1e6f 1a3e 5401 b83d
00000030: 4126 08be 1bd1 893e 0299 6cbe 97e4 98bd
00000040: 5c1a 91be d627 463e 2f25 a0bd 7c6c 7b3e
00000050: f797 84bd e091 fd3a b7e6 393e d7df 3fbe
00000060: ea18 be3d bffd 05be 038e 123e 9cb1 04bd
00000070: a3d1 a4bd c4ba 1a3d edb3 953e 2037 b2b9
0.10069657 0.10271758 0.35494128 0.063361526 0.18039104 0.16084848 -0.17456828 0.23676458
-0.09049665 -0.16091706 0.1508145 0.08984628 -0.13295843 0.26917347 -0.23105243 -0.07465475
-0.28340423 0.19351134 -0.07819592 0.24553102 -0.064742975 0.0019345842 0.18154417 -0.18737732
0.09282096 -0.13085078 0.14311986 -0.032395944 -0.080477975 0.03777577 0.29238835 -0.00033991877

model.10.conv.weight f4 [32, 64, 1, 1]
00000000: 774d b1be c0aa 1b3e c4e3 cdbc 9dcd 2e3e
00000010: 034b 97bd 2036 a6bd 3051 79be 3eec c53c
00000020: 3f2e a4be 6f83 53bd 508b 55be 095c 49be
00000030: c033 4e3d 6e62 643e d60d abbd 127a 6a3e
00000040: 90de 9e3d 37d9 f83d af4b 4f3e 57f2 653c
00000050: a3f2 603e e51d aa3d 474c 453e 47f8 013e
00000060: 29ea 68be cc17 0abe 56d3 113e f8dd a83d
00000070: 6e0e 21be 579e 22be 33f6 243d a0a5 ae3c
00000080: 5855 333e 4227 133e 3f2e a43e fcc0 fcbc
00000090: f32d 293e ef9e 98bc b715 2d3e d95a dd3d
000000a0: dde9 6dbe 7bbb d2bd 2db0 033e 2e9a 68bc
000000b0: 3f2e a4bc 6e43 90bd 841b 52be 56d1 f6bd
000000c0: d81a 1a3d 6c36 21be 4a45 b4bc 2fbb 57be
000000d0: 24a4 473e 311e 25bd 0b13 da3d 4453 d6b9
000000e0: 38a6 a43d 1b86 a63d cdad abbc 1ed3 58be
000000f0: 29ec 83be 8b2e 1fbe 060f 17be 70c5 b1bd
00000100: 0b56 f43d 0c0d 6f3e 52e5 37be 130e 4a3e
00000110: f57f 7e3e 1a95 a8ba 4541 14be a98a f03b
00000120: 95e5 f1bd 969c 6cbe e7aa e3bb 6c6a fd3d
00000130: 4b5e d9bd 7046 683d 1c40 1cbe e76d 65be
00000140: 783b 3cbe 5a60 8fbd 17ad b6bd 166e 8a3d
00000150: 6a66 213e 78c1 3fbe e53c 6ebd 56c1 22be
00000160: 6b5a 1a3d 72f1 5b3e 6e42 8c3e 6040 56be
00000170: 6d5e 763e c79e bf3d e824 603d 713a 61bd
00000180: 7e0b 20be 3eb8 87bd 445d febd 4772 0bbe
00000190: f091 823c 8079 15be 6cd4 16be 1394 cd3c
000001a0: ee6e c0bd 9005 2b3c f24a abbd bc3b f63d
000001b0: cde8 1f3e 1257 4f3e a71c 7bbe 0214 3fbe
000001c0: 83ae e8bd 71fd 623e bca5 0fbd 8e4c 023e
000001d0: e217 7e3d cf19 97bb a59e 223e 58c5 febd
000001e0: f3c4 27bd 94e1 153e 4ffd c53d 861c 5ebc
000001f0: ad29 5dbe 03cb 39be a5db a03c ed31 423d
00000200: fa34 64bb 6cbb a3bd 923d 0e3e 3240 0dbe
00000210: a0c1 cabd 8fbf bd3c 5bb9 16be 5611 563c
00000220: fff1 1cbe d0ee 2b3e e9b9 08be 9e58 72be
00000230: c322 a63c ff94 db3b 0ea0 49be c337 1e3d
00000240: eea7 463e 075e abbd 3537 2c3e 43bb 68be
00000250: dbd8 0a3d 633a 1dba 396d 33be d424 33be
00000260: b60e 57be 54bd f5bd 488d 19be 0649 b3bb
00000270: 2b8c 353e 58f3 fc3d ddba 313d 3719 d3bb
00000280: 3f9a 59bd 10f4 29bc 9855 bc3d 1918 efbd
00000290: 135d 823e ac39 f0bd 6828 5b3d 04e0 5a3d
000002a0: 67fe ea3c b1ae 5fbd 4f5d 7ebe f110 9fbe
000002b0: b235 113e 6507 4c3c 1669 193e b6f9 5ebe
000002c0: 7c93 40bc 10df b1bd adea 113e 2e0a 863d
000002d0: 5bb9 96be 9ff4 9bbe 5ec5 2dbc 8514 473e
000002e0: 651c 443d 82f3 373e 3ee2 22be c504 4dbe
000002f0: 8c56 653e 54bd f5bd 0649 33be da27 69be
00000300: 9873 99be 3c4f c9bd 21ef 61bd d063 263e
00000310: 320f 283e 8d6e bfbc dc98 3ebe d941 cbbc
00000320: 4c3e 113e 772a 043e 19a4 b7bd acf3 dbbd
00000330: 7bec fc3c a83a ec3d 9fbf 033d 3c4f c93d
00000340: 3404 1f3e 0b79 e8bd cca9 76bd a8ce 263e
00000350: df8d 35bd b370 44bd e446 253e 9972 d93d
00000360: 0e6e df3d 0962 89be f534 ad3d 5e5d 17be
00000370: 4c6f 0fbe 4c3e 113e 561b f6bd 8785 113e
00000380: 7de2 33be cf32 a83c a99c 68bd 7d7f 77be
00000390: e2cc 09be 6c3e 893e 1f8e a53b b019 513e
000003a0: 6fb7 643e 3e13 42be f665 ab3d 561b 76bd
000003b0: 3259 85be ebc3 8d3d bdb0 653e 8021 08be
000003c0: 3f75 3e3d 273b cc3d fcb1 153d a97a 00be
000003d0: 7bec 7cbe 4590 2a3d 21ef e1bd 385b 923d
000003e0: e315 273c 1efa 6abe 5efa 5a3e 0ac4 85be
000003f0: 4a7a 183e 2577 533e c4fc cf3d 7d7f 773e
-0.34629413 0.15201855 -0.025133021 0.17070623 -0.07387354 -0.08115792 -0.24347377 0.0241605
-0.32066533 -0.051639017 -0.20853925 -0.19664015 0.05034232 0.22303173 -0.08352248 0.22898129
0.07757294 0.121508054 0.20243715 0.014034829 0.21967559 0.08306483 0.19267379 0.12692367
-0.22745575 -0.1348564 0.14240775 0.08245462 -0.1572816 -0.15880714 0.040273856 0.02131921
0.17513025 0.14370444 0.32066533 -0.03085374 0.16521434 -0.018630473 0.16902815 0.108083434
-0.23233743 -0.10289665 0.12860174 -0.014196916 -0.020041583 -0.07044111 -0.20518309 -0.120516464
0.037623256 -0.15743417 -0.022005696 -0.21067499 0.19496208 -0.040311996 0.106481634 -0.00040879298
0.08039516 0.08131047 -0.020956898 -0.21174285 -0.25766113 -0.15545098 -0.14751825 -0.08680236
0.11930474 0.2334482 -0.17958573 0.19731931 0.24853499 -0.0012861819 -0.14478023 0.0073407483
-0.118113674 -0.23106608 -0.0069478634 0.12373814 -0.10613688 0.0567078 -0.15258831 -0.22405206
-0.1838206 -0.070007995 -0.08919733 0.067592785 0.15761724 -0.18726146 -0.058163542 -0.15894064
0.037683886 0.21478823 0.27394432 -0.20922995 0.24059458 0.09356456 0.054722697 -0.054987375
-0.15629384 -0.06626938 -0.12420133 -0.13617812 0.015938729 -0.1459713 -0.1472947 0.025095021
-0.09396158 0.010438338 -0.08363904 0.12023112 0.1561615 0.20248058 -0.24522649 -0.18659976
-0.113614105 0.22166993 -0.035070166 0.12724516 0.062034495 -0.004611231 0.1588083 -0.12439984
-0.04095931 0.14636832 0.096674554 -0.013556605 -0.2159793 -0.18143849 0.019635985 0.047410894
-0.0034821616 -0.07994732 0.13890675 -0.1379402 -0.09900212 0.023162631 -0.14719145 0.013065657
-0.15326689 0.16790318 -0.13352169 -0.23666617 0.020280248 0.0067011113 -0.19689962 0.038627397
0.19399998 -0.08367544 0.16817935 -0.22727685 0.033898216 -0.0005997775 -0.17522134 -0.17494518
-0.21001706 -0.11999002 -0.14995301 -0.0054713516 0.17729251 0.12351102 0.043391097 -0.006442215
-0.053125616 -0.01037313 0.09196013 -0.11674518 0.25461635 -0.1172975 0.05350533 0.053436294
0.028685762 -0.054609958 -0.24840282 -0.31067613 0.1418064 0.012452935 0.14981493 -0.21774945
-0.011753913 -0.08685124 0.14249678 0.0654491 -0.2943829 -0.3046007 -0.010606138 0.19441421
0.04787864 0.17963985 -0.15906617 -0.2002135 0.22396296 -0.11999002 -0.17508325 -0.22769108
-0.29971004 -0.09829566 -0.05515969 0.16249013 0.16412047 -0.023368144 -0.18612999 -0.024811672
0.1418392 0.12906824 -0.08966846 -0.10739836 0.030874481 0.11534625 0.032165166 0.09829566
0.15528947 -0.11351212 -0.060220525 0.1628977 -0.044324752 -0.04795904 0.16140324 0.10617561
0.10909663 -0.26832607 0.084573664 -0.1478171 -0.140073 0.1418392 -0.12016933 0.14211093
-0.17566867 0.02053204 -0.056790028 -0.24169727 -0.13457063 0.26805437 0.0050523425 0.20419955
0.223356 -0.18952653 0.08369057 -0.060084663 -0.26044613 0.06922134 0.22430702 -0.13294029
0.046498533 0.0997222 0.036546692 -0.12546791 -0.24699585 0.041641492 -0.11031938 0.07146305
0.010198089 -0.22946975 0.2138457 -0.26126128 0.148904 0.20650919 0.10155633 0.24169727

model.13.cv1.conv.bias f4 [16]
00000000: e56e 883e 1f62 fcbd 27d5 cfbd d990 85bd
00000010: 4aa4 1c3d 9289 d63d 7ec7 6d3e 8908 363e
00000020: caf0 b5bd 8a3b abbe fff6 d83e ae0f 533e
00000030: e0eb 06be 50c4 0e3f ca6e 043e 2762 763e
0.26647106 -0.123234026 -0.101480775 -0.06521768 0.038242616 0.10475458 0.23220631 0.17776693
-0.088838175 -0.33443862 0.42375943 0.2061145 -0.13175917 0.557683 0.12932888 0.2406088

model.13.cv1.conv.weight f4 [16, 64, 1, 1]
00000000: e5a4 9bbc 626c d8bd 97f5 553c c922 b13d
00000010: 009c 12be 44b4 4ebe a36d 2a3c 8696 6b3e
00000020: c832 cd3d e003 413e 590a 6bbd c17a 883e
00000030: 6e2a 683c 11ec 63be 4e3c bfbc 4148 103e
00000040: 9e77 7bbe 1aa3 253e b6e3 7ebd f6ae b13d
00000050: a137 8b3d cf09 47be cd7e d33c e965 2e3e
00000060: 1900 88bd 7311 fe3d ebe0 05be ce6e 373e
00000070: 28dc 0c3d ebd1 6c3e 2ce3 da3d 9980 49be
00000080: 850b f8bb 3c52 e1bd 5568 8d3e 2dd3 3e3e
00000090: 58d4 cbbd 7a92 203e 7cb8 23be ae3b 56be
000000a0: fcea 1bbe bfe0 7bbd 3f22 0dbe fac4 18be
000000b0: 4d4c dbbd 4148 103e aa25 6f3b 4a45 8d3e
000000c0: 216a 03be 250c 613d 7401 e23c f488 2e3d
000000d0: 0d90 c1bd db1c 2bbd 1287 f3bd 2aad 3b3e
000000e0: 159d 5abe 5aac 853d 224b 4ebe 8650 30be
000000f0: 4ee7 6a3e a09d 7e3d 579e acbd 26fc c4be
00000100: a2d0 893d ecff 06be 7d0b 83be 7ec9 35be
00000110: fb3f 903e d4ed cf3d 8bf8 0d3e dd1a 0e3e
00000120: f413 df3d 615a d43d 3550 d93d ffe6 193e
00000130: 5ea3 26bd e52e e6bd fb3f 903d eb6a 3bbd
00000140: 255a 2f3e ed6b c83c 7f35 f73d a3a7 7fbe
00000150: 27a5 9b3c 74c5 81be 5d48 963e 8416 bcbd
00000160: 1474 a9bd 0c26 163e 8360 9b3d 50cf debd
00000170: b07b 473e e689 763e 1e57 08be 777c af3d
00000180: 8305 0b3e eb20 5c3e 55b0 a33d b9c9 dabd
00000190: 172b 573d 59fc 9c3e 71e5 c9bb 8d9e 8a3e
000001a0: 9cde 93bd c5f7 a5bd 3d43 dcbd 7d34 6abd
000001b0: 8cae 2e3e 674c 4a3e a13b 3e3b ab3f 723d
000001c0: f3a7 1dbd c642 923d 10cd 1fbd aa89 d1bd
000001d0: f15c b13c d1db 113e d929 a5be 50cf de3d
000001e0: 31e3 8abe 55d1 f8bd ee5b a4be 018d 16bd
000001f0: 5ded 053e 93b1 55be 9837 0a3d 33e4 97be
00000200: 6b38 f5bd a5ca 2cbe cda2 ee3d c205 4a3e
00000210: 574c d4bd c9e6 d2bd 67c1 913d 4440 68bd
00000220: e1ac 33bd e8ff 7dbd 0aca 2d3e 0557 183e
00000230: 7818 2b3e 4dd6 c3bd 38a3 c33d 1ffd ad3d
00000240: 68a3 ed3d a315 dabd 6052 4a3e 6e32 003e
00000250: 453e c1bd d8ed 1c3d 7415 b0bd e96d f1bd
00000260: eafb afbd dd19 533e 4dff fe3d 5022 45bc
00000270: c14e d0bd d055 1abe 17d7 ec3d d411 b6bd
00000280: 7513 893d e2d5 eebd 677a b2bd 0d5f 35bd
00000290: 03e9 24be ad62 2fbd c651 cbbd 181c 253d
000002a0: abad dc3c 8c94 313e f471 c03d 42a9 393e
000002b0: 2024 c2bd 8dbb c53d 667c 593e c7bf 3ebc
000002c0: aacb 003d dd19 d3bd 6b38 f5bd 2875 e5bd
000002d0: 9a56 433c 2e2d b3bd 377c 2f3e bfe0 dcbd
000002e0: 7f89 993e 9b0d bd3b d8a4 963c 73d0 f7bd
000002f0: 1440 bebd af40 3d3e 8e49 043d 2024 42be
00000300: ea8e fdbc fa89 06be e4e6 4cbc a254 af3d
00000310: 339c c6bc 4ead d0bd 8e15 e23d 3959 7d3d
00000320: a821 3a3e bac2 3abe af18 d13d 1199 573c
00000330: 2474 383e e4e6 cc3c bc4b 013e 13fd 433d
00000340: e99e 51bd 7f12 2e3e 410e 09be a279 09be
00000350: c8fa 1cbe 89a7 913d c522 f03c c547 cabd
00000360: c2ce d7bd 676a c2bd bd50 333c 9531 d3bd
00000370: 8cfb 293d 9885 eb3d 2ed4 ed3d 224a 2cbe
00000380: 14d8 69be 92c8 34be 48a6 65be c3e3 ddbd
00000390: 532b 753e 0122 633d bc01 cd3d 2210 cc3d
000003a0: c90f a3bd b9ad 343c b1a1 973b d394 323e
000003b0: c924 a93c 3e95 963d 8d10 30be 6550 8abb
000003c0: 49e0 45bc 0296 233e d722 2b3e 8deb d5bd
000003d0: 034c ef3c 0ca7 72bd 0d40 8d3e 2579 ea3c
000003e0: 7f37 88bc 6b32 1b3e a5a8 47be 4ae5 773c
000003f0: 64dc 493e a105 c93d 4e98 4abe f1e4 cebc
-0.018999526 -0.105675474 0.013059041 0.08649213 -0.14317322 -0.20185953 0.010402116 0.23006639
0.100194514 0.18849134 -0.057382915 0.26656154 0.014170272 -0.22258021 -0.023344185 0.14090063
-0.24557349 0.161755 -0.06222888 0.08675949 0.0679772 -0.19437335 0.0258173 0.17031063
-0.066406436 0.12405672 -0.1307408 0.17913362 0.034389645 0.23126952 0.10687861 -0.19677962
-0.0075697326 -0.11002013 0.27618662 0.18635245 -0.09952611 0.15680876 -0.15988344 -0.20921203
-0.15226358 -0.06149363 -0.13782595 -0.1491889 -0.107079126 0.14090063 0.0036490955 0.27591926
-0.12833454 0.054943223 0.027588584 0.042611077 -0.09451304 -0.041775566 -0.11890997 0.18327776
-0.21348985 0.06527014 -0.20145848 -0.17218217 0.22939798 0.06216204 -0.084286384 -0.38473624
0.06729247 -0.13183564 -0.25594702 -0.17752644 0.28173813 0.10152784 0.13864343 0.13877435
0.10892478 0.10368801 0.106110014 0.15029524 -0.040683143 -0.11239413 0.07043453 -0.04575626
0.17124231 0.024465526 0.120707504 -0.24966292 0.01899965 -0.25345957 0.29352084 -0.09183982
-0.08274093 0.14662951 0.075867675 -0.108793855 0.19480777 0.24076042 -0.13314483 0.08568662
0.13576321 0.21496932 0.07992617 -0.10683007 0.052531328 0.30661276 -0.0061613848 0.2707409
-0.07220194 -0.08103899 -0.10755012 -0.057178963 0.17058772 0.19755708 0.002902724 0.05914275
-0.038490247 0.07141642 -0.039013922 -0.102313355 0.021650763 0.1424401 -0.3225849 0.108793855
-0.27126458 -0.12149302 -0.32101387 -0.036755566 0.13078828 -0.2086852 0.033744425 -0.2966629
-0.119736515 -0.16874178 0.116521455 0.19728759 -0.10366123 -0.10297925 0.07116967 -0.056701913
-0.043866042 -0.06201163 0.16971603 0.14876945 0.16708553 -0.09562359 0.09552616 0.08495545
0.11603433 -0.10648658 0.19757986 0.12519237 -0.09435705 0.038312763 -0.08597842 -0.11788542
-0.08592971 0.20615335 0.124510385 -0.0120321065 -0.10171271 -0.15071797 0.11564463 -0.08890119
0.06693164 -0.11661889 -0.08714753 -0.0442801 -0.16104512 -0.042818714 -0.099277064 0.040309995
0.02693828 0.17341822 0.09396735 0.18130973 -0.094795465 0.09654913 0.2123886 -0.011642403
0.03144423 -0.103076674 -0.119736515 -0.112039864 0.011922503 -0.08748852 0.17137228 -0.107850544
0.29987714 0.005769444 0.01838915 -0.121003054 -0.09289566 0.18481706 0.03229671 -0.18959093
-0.030951936 -0.13138571 -0.0125062205 0.08561064 -0.024244403 -0.10189305 0.110392675 0.061852667
0.18176901 -0.18238345 0.10209786 0.0131590525 0.18013054 0.025012441 0.12626547 0.047848772
-0.05117694 0.16999243 -0.13384344 -0.13425305 -0.1533004 0.07112033 0.029313454 -0.0987697
-0.10537483 -0.09492951 0.0109445425 -0.103121914 0.04149966 0.1150009 0.11612736 -0.16825154
-0.22836334 -0.17654637 -0.22426713 -0.10834458 0.23942308 0.05545235 0.100100964 0.099640146
-0.07961995 0.011027747 0.0046274294 0.17439584 0.020647423 0.073526844 -0.17193814 -0.0042210096
-0.0120773995 0.15975192 0.16712509 -0.10445318 0.02921105 -0.05924134 0.2758793 0.02862222
-0.016628025 0.15155952 -0.19497927 0.01513035 0.19712979 0.09815527 -0.19784662 -0.025255652

model.13.cv2.conv.bias f4 [16]
00000000: 42bc a0be 4f6c bf3e e8aa f9bd 64d9 a2bc
00000010: 9b7e 6cbe 3066 ed3c 5efe 87be 9196 0b3f
00000020: a0e2 e53d ce0c 08be 308f 30be 74c5 ea3d
00000030: ddd7 ea3e b0b9 813d 46b7 723e 830b 3fbe
-0.3139363 0.3738732 -0.12190801 -0.01987905 -0.23095171 0.02897939 -0.26561254 0.5452662
0.11224866 -0.13286135 -0.17242122 0.114634424 0.45867816 0.06334245 0.23702726 -0.18656735

model.13.cv2.conv.weight f4 [16, 64, 1, 1]
00000000: d883 363e 10ff 003e 122f 05be 7061 933d
00000010: d717 6abd c7fa 04be d0a5 41bd 9784 a3bd
00000020: fee2 0e3e 3fe2 21bd 6e13 ab3d dada 2ebe
00000030: 36fb 9c3d 5b33 01be e35e 773d 9784 23bc
00000040: a7e6 603c 7ef6 88bd 057c 2b3e f8ef 453d
00000050: bb95 13be 7eb1 303d 1e31 3a3d 5d63 853d
00000060: 7a96 80bc e191 afbc 39ef 58be c2e9 573d
00000070: 7a78 1cbe 9088 4abd a770 113e 5897 30be
00000080: bb95 133e ca33 19bc 89d1 c93d 2ab4 8fbd
00000090: a667 013e f5fb 893d 7567 6fbd 4b0b cb3d
000000a0: 8b1f 323e 858f 253d f1f3 6c3e 39ef 583e
000000b0: a0b0 00bd a3e9 14bd aee2 393e cc1e c53d
000000c0: f138 c53d cd09 f1bd 2ab4 0fbe 5d45 a13d
000000d0: 8883 613e 09be cfbd 768e e33d 5a64 783d
000000e0: 7cc6 84ba 5b8b 6c3d 4917 0f3d aea6 f13d
000000f0: fa82 863d 2188 b2bd 6ff5 c63c ed93 e43d
00000100: edf5 8fbe 195c 0cbd 733f 41bb ec6e 06be
00000110: 694e 63bd d575 8ebd eaf4 64be 4a5c 0fbe
00000120: 460a a2be 34f3 c93e e8e6 51be 30d7 23be
00000130: 97ef 103c 11c1 dabd c2ce 03be 094a 1ebe
00000140: 2c8e 5f3e 2d8a a0bd b9f4 61be 9198 39be
00000150: 2833 493e 83ca 253e 76c2 0b3e 29c3 7b3e
00000160: 2902 6c3e 0a9b e0bd 4649 92bd 3d27 57bd
00000170: e964 b23d dc26 51be 165b 613e 1aa4 253c
00000180: 37fd 1dbe 63e5 393e d228 0bbe 9198 39be
00000190: 43bd 9e3d 508f 713d 6e27 dabd e27d a8bd
000001a0: ba33 52be bab1 323d 2d42 07bd 2bfe acbd
000001b0: f108 8dbe 5568 683c 60d7 26be 4969 f73d
000001c0: efcd db3d ee3d 29bd d1a1 813e e548 8cbe
000001d0: a85b eabc 51ce e13d b599 cb3d dc9b 88be
000001e0: 507d 9fbd bfcd 58be 218b 2fbe 6116 17be
000001f0: 871c 13be 8a2f 10be b3ca a83e 10f2 37be
00000200: 8e13 253e 4f7d 983e 3e7e af3a 1d3f a7bc
00000210: ad07 963e 9661 df3d d39b 96be 80d3 85be
00000220: a16e 63be 5b9b 5abe f00a 97bd 3ca7 69be
00000230: 6ee5 5a3e 11e7 8b3d 35a4 c63c eb52 8b3e
00000240: 1f9b 7c3e 7429 95bd de51 05be 07d3 493e
00000250: 76ae 053e e6f6 54bc 51c8 afbd 6cec 18bc
00000260: 5aed 2fbd a4f3 533d be75 90be 450d 8139
00000270: 450d 013e ee96 64be 054e 593d 871c 00be
00000280: 3032 923c 4ea6 d2bd 1232 233e 9d36 88bb
00000290: ddc0 16be ca35 7f3e 6270 83be 6640 0bbe
000002a0: e289 e03d cc0c 453d 5176 5abe 4003 a0bd
000002b0: 0f10 c63d 2a86 84bd c57d f33d 9135 023e
000002c0: 1eed d13d 8f5e bcbd 1565 3ebe 0cdd 2abe
000002d0: 775c 303e 6910 13be e50e d13d 5aed af3d
000002e0: 2db9 9f3d 5213 473e ca13 833e 2a97 c23b
000002f0: 69ca 3bbd ccfb 86bc e5ab 3d3e ff90 8d3d
00000300: 2c65 943e 040d d9be beb5 b33e 0cfd 883e
00000310: 2cb9 8d3e 7dd2 7e3e ad57 b1bc 1863 b33e
00000320: ae01 aebe c159 923e 3396 9f3e 96c8 a33e
00000330: d9e6 953c e16b 1a3e c5e6 bebd 0805 b1be
00000340: b0fb 0f3d 8c9d b63d 9672 203e b7d8 21be
00000350: bad2 83be 554e 103e 2ba8 793e 79ef cebe
00000360: 32ee 2c3e 9e4b 9ebe 846c 2bbe eb40 043e
00000370: eb40 843e 7999 4bbe 4b23 233e 22cf 7b3e
00000380: beb5 333d 8ed8 f3be a976 0b3e 7ce9 b03e
00000390: 4fc7 01bd 6e85 10be 5e12 e6bc faa2 9abe
000003a0: 2a13 253e e5f8 46bd 7464 ac3d 2d63 0a3e
000003b0: 3b5a f5be 846c ab3e e002 793e 2ca4 653e
000003c0: 027c 98be 5256 b8be 21e6 adbe 0cfd 883e
000003d0: c988 933e 3b6f 1d3e 7d91 a3be 3d17 903e
000003e0: 754d fabe 4644 073e d14c 693e cebd b23d
000003f0: 2db7 83bd 4644 073e a032 e23d ebec 0abf
0.17823732 0.12597299 -0.13006237 0.07196319 -0.05715164 -0.12986289 -0.04727727 -0.07984274
0.13953778 -0.039522406 0.08353315 -0.17075673 0.07665102 -0.12617247 0.060393225 -0.009980342
0.013726867 -0.0668764 0.16746528 0.048324555 -0.14412586 0.04313802 0.045456998 0.06513093
-0.015696753 -0.021431865 -0.21185006 0.052713163 -0.15280333 -0.049446642 0.1420313 -0.17245233
0.14412586 -0.009350726 0.09854419 -0.070167854 0.12637195 0.0673751 -0.058448274 0.09914263
0.17394845 0.040420074 0.23139931 0.21185006 -0.031418443 -0.036355626 0.18152878 0.09625015
0.09630001 -0.117694475 -0.14033571 0.07874558 0.22022831 -0.10143668 0.11111157 0.060642578
-0.0010129954 0.057750087 0.034934316 0.1179937 0.065679505 -0.08717371 0.024286954 0.11161027
-0.28117314 -0.03426752 -0.0029487282 -0.13128251 -0.0554947 -0.069560684 -0.22359052 -0.14000049
-0.31648463 0.39443362 -0.2049824 -0.16000056 0.008846185 -0.10681356 -0.1287184 -0.1545793
0.21831578 -0.07838855 -0.2206601 -0.18124606 0.19648421 0.16190533 0.136484 0.24586166
0.23047699 -0.10967071 -0.07142882 -0.052527655 0.08710653 -0.2042498 0.22007403 0.010109926
-0.15428625 0.1815391 -0.1358979 -0.18124606 0.077509426 0.058974564 -0.10652052 -0.08227135
-0.20527545 0.043626525 -0.033022095 -0.08446916 -0.27545884 0.014185031 -0.16293097 0.120806284
0.10732638 -0.041318826 0.2531877 -0.27399364 -0.028608158 0.1102568 0.09941427 -0.2668141
-0.07787573 -0.21172236 -0.17142917 -0.1475463 -0.14366351 -0.14080635 0.32967147 -0.17963433
0.16120741 0.29783103 0.0013389064 -0.020415837 0.2930273 0.10907285 -0.2941576 -0.26137924
-0.2221017 -0.21348326 -0.07375133 -0.22817701 0.21376583 0.06831182 0.024248222 0.272117
0.24668549 -0.07283297 -0.13019511 0.19709407 0.13054833 -0.012998318 -0.08583129 -0.009333711
-0.042950965 0.051746026 -0.2821483 0.00024614684 0.12602718 -0.223232 0.05305292 -0.12510882
0.017846197 -0.10285626 0.15937069 -0.004156901 -0.14722009 0.24922863 -0.2567168 -0.13598785
0.10963799 0.048107907 -0.21334197 -0.0781312 0.09671032 -0.06470902 0.11889223 0.12715746
0.10250305 -0.09197723 -0.18593247 -0.16685885 0.17222773 -0.14361729 0.10207919 0.08590193
0.07798991 0.19440964 0.25601035 0.0059384303 -0.04584733 -0.016477488 0.18522604 0.069124214
0.28983438 -0.42392743 0.35099596 0.2675556 0.27680337 0.24884982 -0.021648252 0.3503654
-0.33985656 0.28584102 0.3116928 0.31988972 0.018298553 0.15080215 -0.093213595 -0.3457415
0.035152137 0.089167684 0.15668711 -0.15805326 -0.2574671 0.14092381 0.24380557 -0.40417078
0.1688774 -0.30917066 -0.16740614 0.12915389 0.25830778 -0.19882764 0.15931432 0.24590734
0.043874495 -0.47626156 0.13619484 0.34553134 -0.031684216 -0.141134 -0.02808493 -0.30202466
0.16120592 -0.048577208 0.084175974 0.13514395 -0.47920403 0.33481228 0.24317503 0.22425908
-0.2978211 -0.36003357 -0.33964637 0.2675556 0.28815296 0.15374462 -0.31946936 0.2814273
-0.4888722 0.13209638 0.2278321 0.087276086 -0.064314224 0.13209638 0.11044812 -0.5426776

model.13.cv3.conv.bias f4 [32]
00000000: ba2b 413e 542d abbd fb8b cabc 3438 5ebe
00000010: 8437 a53e 8e6d 5a3e e934 5abe b46a 2d3f
00000020: 650a ad3e bac0 fe3e 6edf 893e 8b7a 9c3d
00000030: 2002 4a3e 3524 86bc f72a 64be de43 183e
00000040: afc8 673e 1646 56be 98ce 86be 7aac c73e
00000050: 78f4 f1be f42b d33c d6c5 9cbc e082 57be
00000060: 30d1 86bc 6fa6 75be da86 643e d248 b43e
00000070: 72cb 31be 3136 893e 64de d7bb 88e7 8ebe
0.18864337 -0.08358255 -0.024724951 -0.21701127 0.32268918 0.21330854 -0.21309246 0.6774094
0.33796993 0.49756414 0.26928276 0.07640561 0.19727373 -0.016374687 -0.22282015 0.1486964
0.22635148 -0.20925173 -0.26329494 0.38998777 -0.47256827 0.025777794 -0.019137304 -0.21046019
-0.01645717 -0.2398927 0.22317067 0.35211807 -0.17362764 0.26799157 -0.0065877903 -0.2791102

model.13.cv3.conv.weight f4 [32, 32, 1, 1]
00000000: aeb6 f0bd 9664 8cbe 5280 c83d 957c 1dbe
00000010: 17fa dbbd 1333 dfbd d9c0 25bc ee2f 1ebe
00000020: 1b65 72be a2a5 cfbd 6707 52bd ccf7 b7be
00000030: 91e5 423e 89b3 afbe e980 323e 0622 3ebe
00000040: 91cd b13c e10a cabd 3ccd 7a3d 41c0 3b3e
00000050: 5280 483e 91e5 423e a275 adbe 7cba 1f3d
00000060: ccc7 953e e5a1 24be 20cc aa3c dd2b bc3d
00000070: 41c0 3bbe 9129 98be 1c49 83bd 4e71 98bd
00000080: d20f a83a 12bb dc3e 9493 7a3d f08c a43e
00000090: dfea c13c be4b 8abe 881c 143e dda5 ad3e
000000a0: 658a 283e 475b 523d e326 443d f60d bbbe
000000b0: eee3 dc3e 6e29 c0be ec50 a2be ee95 b63c
000000c0: 1e1d 03be b8f1 863d a120 ee3d 98cf fcbe
000000d0: 8dc0 83be ac8f e03e 371d a3bd 85c1 f23d
000000e0: a998 f23c 8c7f 293c 5872 6e3e c090 1e3e
000000f0: 5fcc 71be 78e6 d8be b4b9 bebd 584b dbbd
00000100: 6fcb d73e a2b2 443e 115f c73d e125 a8be
00000110: 9729 65be 85a1 f43e 1ba6 d63e 7912 e7be
00000120: dc71 acbe 1be8 a6be 4eae 2b3e c435 c03d
00000130: a2f4 94be 625a 1b3e 7851 a0be 9172 52be
00000140: 5589 bd3e 354b 29ba 1b09 8fbe a4d9 dabd
00000150: 6b7d ab3d 2d6d 803e 2c49 81bc 0981 9e3e
00000160: b9eb 193e 6fec bf3c d9e7 ddbe 75e5 a23e
00000170: ae20 ea3e 452b fabe 7a96 87be f062 03bf
00000180: a8c7 24be bf0e a2be 565c 6cbd ff05 d83d
00000190: a42a c43e fc57 d8bd 46a1 303e a619 a5be
000001a0: 0373 76be f9ea 39be a17c 44bd c5f6 91be
000001b0: 75ad 683d c7a7 fd3c bb89 a23e e2a3 bc3d
000001c0: cb9d 203d 4760 cf3e 462d 21bd 9227 653c
000001d0: 0ad6 373d 00dd d73e 3e7f 50bd 0592 993e
000001e0: a149 963e 1ad2 d43c cc74 20be 8de3 c6bd
000001f0: db3d 0fbe 43f3 b0be 04bb 993e 0f73 983e
00000200: a225 9ebd 5918 263e 2520 e8bd bde7 1bbd
00000210: 8ce3 70be 8f9c a13d 5548 fb3c b334 11be
00000220: d1ab 7a3e 932d 25be d81e 5d3e b246 453e
00000230: 80b6 dc3d 1efe 603e 1f3d 083e 19e1 9fbe
00000240: 9e94 1a3e a947 a5be 8a06 d8bc cba0 6dbc
00000250: 6bed 373e 46c9 8abe 26c2 9e3a df68 11be
00000260: 4e77 4fbe bc45 e53d 1f15 5bbe 04f0 cdbd
00000270: 7272 cebd 8f9c 213d a1d4 c2bd dc9d 2c3d
00000280: 2962 523d b101 02be a546 29bd 034c 313e
00000290: 6e99 85be fbe0 10bd 954a 8fbd e9a2 33be
000002a0: 6e7f 1e3e 54d6 a03d 071a e6bd 7a45 67be
000002b0: 2962 52bd b8d1 39be dae5 57bd bed5 3fbe
000002c0: 0e86 08bd 7d7b 38be bd54 3e3e 26ae 043e
000002d0: 2546 e8bd beef 26be 2eff 3dbe 2eff 3dbe
000002e0: 5717 62bc 3e88 cbbc 2278 b3bd a12a bfbd
000002f0: e4c6 093e bd20 703d 9af2 ea3d 9006 c93d
00000300: b189 3fbe 6d64 6e3e fb7e 40be 35ac 9e3d
00000310: 9af7 6ebc 4bc9 603c 483d 06be 5d06 123e
00000320: 480b 643e 1e68 823d 7dd8 5abe 9343 d13d
00000330: eed3 183e 6234 573e 267b 9e3d 2c56 163e
00000340: 28f6 2e3e eeb7 06be 8808 f2bd 188d 0a3e
00000350: 35c8 303e 4515 433e 67d7 2abb e925 7dbd
00000360: dde4 1bbd b347 3c3e 8401 873d 2955 adbd
00000370: 32d2 0fbe aaa3 ffbd 35c8 30bd 173f 56be
00000380: 375f 963e 94c3 7b3d d309 dcbe 779c 0bbf
00000390: f42a 0cbd fc05 c0bd e6ba a3be 9616 31be
000003a0: 9b02 9bbc e764 0ebd e46e 19be daec 5a3e
000003b0: ae01 adbe cd7a 32be 9032 92be c8e4 ddbe
000003c0: fffa 143d c0b4 b4bd e419 a4bd 2d86 a2bd
000003d0: 7f77 bf3e 8e34 d2bd 0a6f fdbd 033e 343e
000003e0: 8604 293e 40db 49be 99b6 10bd bbc8 4abe
000003f0: 23ae 4ebd 830f 54bd f03d 02bf 1791 1bbf
-0.117535934 -0.2742049 0.097901 -0.15379556 -0.1074106 -0.108984135 -0.010116779 -0.15447971
-0.23671381 -0.10139014 -0.05127659 -0.35931242 0.19032885 -0.34316662 0.17431988 -0.18567666
0.021704467 -0.09865356 0.061230883 0.18335058 0.195802 0.19032885 -0.3387881 0.038996205
0.29253995 -0.16077383 0.020849288 0.09188054 -0.18335058 -0.29719213 -0.06410429 -0.07443486
0.0012822098 0.43111473 0.061175898 0.32138777 0.023671566 -0.27010912 0.14464009 0.33915606
0.16459043 0.05135658 0.047888648 -0.3653409 0.43142647 -0.37531608 -0.31702363 0.022288289
-0.12804076 0.06589073 0.11627317 -0.4937713 -0.25732842 0.43859613 -0.07964557 0.11853317
0.02961381 0.010345351 0.23285806 0.15484905 -0.23613118 -0.42363334 -0.09312764 -0.1070773
0.42147395 0.19208768 0.09734929 -0.328414 -0.22379147 0.4777948 0.41923603 -0.4513128
-0.33680618 -0.32598957 0.1676571 0.09385255 -0.2909289 0.15171197 -0.31312156 -0.20551516
0.3701884 -0.0006458045 -0.27936634 -0.10686043 0.08373531 0.25083295 -0.015781961 0.3095782
0.15031327 0.02342817 -0.43340948 0.31815687 0.45728058 -0.48861137 -0.26481992 -0.5132284
-0.16091788 -0.31651875 -0.057705246 0.10548019 0.38313782 -0.10563657 0.17249021 -0.3224613
-0.24067311 -0.18156041 -0.047970418 -0.28508583 0.056806047 0.030963792 0.31745705 0.09210946
0.039212983 0.4050314 -0.039349817 0.013986485 0.044881858 0.42160797 -0.050902598 0.29994217
0.2935305 0.02597909 -0.15669554 -0.097113706 -0.1398844 -0.34560594 0.30025494 0.29775283
-0.07722022 0.16220225 -0.11334256 -0.0380628 -0.23524302 0.07891189 0.030674139 -0.1418026
0.24479605 -0.16130666 0.21593797 0.1926525 0.107769966 0.21971938 0.13304566 -0.31226423
0.15095755 -0.32281235 -0.026370306 -0.014503668 0.17961662 -0.27106684 0.0012112304 -0.14200161
-0.20260355 0.111949414 -0.21394776 -0.10055545 -0.100804225 0.039455947 -0.09513212 0.042142734
0.051363144 -0.12695958 -0.041327138 0.17314152 -0.2609362 -0.035370808 -0.06996647 -0.17542614
0.15478298 0.0785338 -0.11235433 -0.22585097 -0.051363144 -0.18146408 -0.052709438 -0.1873388
-0.03333097 -0.18015857 0.18587013 0.12957057 -0.11341504 -0.16302392 -0.18554375 -0.18554375
-0.01379951 -0.024845239 -0.08763148 -0.09334303 0.13454777 0.05862497 0.11472054 0.09815705
-0.18704869 0.23280497 -0.18798439 0.0774769 -0.0145854 0.013719867 -0.13109314 0.1426024
0.22269928 0.06367515 -0.21371646 0.10217967 0.14924595 0.21016076 0.077383325 0.1468131
0.17086089 -0.13156101 -0.118180335 0.13530385 0.17263873 0.19051082 -0.0026068331 -0.061803732
-0.038060058 0.18386726 0.06592086 -0.08463509 -0.14045027 -0.12482388 -0.043159682 -0.20922504
0.29369518 0.061465815 -0.42976245 -0.5453562 -0.03422065 -0.093761414 -0.3197853 -0.17293772
-0.01892214 -0.034764197 -0.14983708 0.21379414 -0.33790344 -0.17429657 -0.285542 -0.4333861
0.03637218 -0.08823538 -0.08012751 -0.07935748 0.37395856 -0.1026393 -0.12374695 0.1760178
0.16505632 -0.19712543 -0.03533039 -0.19803135 -0.05045904 -0.051772606 -0.5087576 -0.60768265

model.13.m.0.cv1.conv.bias f4 [16]
00000000: efbd 2a3f 870e be3e d292 143f 08c1 063f
00000010: a17b 0e3f 6334 abbe 5f33 88be c57d dfbd
00000020: 5283 953e ca7f 0fbf ee1d b4be ed39 cc3c
00000030: e32d cd3e 0eed d63d 7a73 1abe be18 213f
0.66696066 0.37120458 0.5803653 0.5263829 0.5565739 -0.33438405 -0.26601693 -0.109126605
0.29201752 -0.56054366 -0.35179085 0.024929965 0.4007407 0.10494433 -0.15083113 0.6292838

model.13.m.0.cv1.conv.weight f4 [16, 16, 1, 1]
00000000: f49e 93be c458 7cbf 2c2e 33bf 961e d7be
00000010: e2b3 7b3e 744d 5d3e 6626 58be 6aa2 0b3f
00000020: 08fb ef3e 6cb6 3c3d 2970 59bf 5ac4 68be
00000030: 30f9 81bd fefa 49bf 52d1 37bf 3aaa 0cbf
00000040: 7b9d b23e 1046 20bf 71de 5f3e 3f0b b03e
00000050: fe4d 80be 4cd8 22bf f0df 91bd 1ee7 983e
00000060: f8b9 da3d 2dfd 123f 8896 1fbf afec f3be
00000070: d280 133e d5ba 2d3c cdc0 f3be b56a 9cbe
00000080: e647 91be 3fa1 2abf 7bb0 15be 3cce 51be
00000090: f46c 28bf 38a4 b03e df76 3c3e b145 f4be
000000a0: 5c16 fc3e 263a 29bf 94d0 22bd ab0c 01bf
000000b0: e9b8 a63e 2939 a7be 1bb2 ccbe 3518 4cbf
000000c0: d819 e33e b207 153e e19a 10bf c3bd 32bf
000000d0: 3d6e 9b3b 9148 0abf 71a7 46bf 40a3 173f
000000e0: c510 bcbd b6ad 8a3f ba8f 543e d86c b2be
000000f0: c017 5abf f7d8 b3bf adf0 08bd f450 e83d
00000100: 465e 0abf cff5 d1be ad53 bbbe d4d2 ccbe
00000110: b230 363e 4ef0 99be 1c8f acbe e282 b63e
00000120: 5896 9cbe 39d6 06bf 0466 acbe 158a cbbe
00000130: aacb 923e 31ea 9e3e abea f5be 04cb f4bd
00000140: caba 29bd 73d1 7ebe 73d1 7ebe fba7 973d
00000150: a8ae acbe 75ff 3a3e 3ccc 413d 2d25 bd3e
00000160: 10ea 013f 4cc0 003f 7fd1 6dbe d89b 9a3e
00000170: 0047 0d3f 8a5c 133f 3fdf 8f3e 1e63 cabe
00000180: f2d0 b9be ad17 28be d310 983e ec8c a03e
00000190: 6cd3 e23e d2d1 34bd f7c3 4cbe a050 123f
000001a0: d180 2e3f e9ea 93be 7d38 92be 9ba7 2dbe
000001b0: 4ac2 babe 2933 cc3e fbee 6abe 1398 b33e
000001c0: 3579 6b3d 60ce cc3e 2aad 03bf 4ae5 89be
000001d0: 0663 d8bd c025 0c3f 2b30 3fbe c176 df3e
000001e0: 00c2 e9be 050c ee3d eb42 eebe 47d3 e4be
000001f0: daa3 af3d 3d8a 383f 0f29 c93e 8917 a0be
00000200: ac71 893d da8b 12bf c5ad 21bf 6de6 9cbe
00000210: 1859 853e b9a1 b2be c4bc 07bf 4797 48bf
00000220: 5eaf 26be 5659 18bf 93dd b73e 91d6 6a3e
00000230: 4631 083f 4dc9 1c3f 9ef8 0cbe 7111 a4bc
00000240: 009f 4b3f 4939 fd3d af82 70be 95cb de3e
00000250: 7784 973e d90b 2c3e 9d1a d53d a82d be3e
00000260: 0ab6 dc3e 3703 8b3d f84e cbbe 988e c73e
00000270: a82f 52bf ec6e 153e fa48 0f3f b342 bb3e
00000280: d025 ac3e 79f8 48be 7c1e 08bf a417 a13e
00000290: 55b2 37bf 40bc 34be 9e6d f2be 6060 8b3e
000002a0: 312c c13e 7dab d0be 236d 353f e7df 033f
000002b0: 0cb3 dd3d e297 bf3e f72f 123f 147f 913e
000002c0: 8919 5c3f 1edf 5bbe 64b3 a6bd 8099 1ebf
000002d0: d3c2 a4be e9e7 6939 d797 223f 3145 96be
000002e0: 3dc4 0fbf ef95 153f a971 7e3e d8bd 30bf
000002f0: 248d 073e ee6f 073e 4a69 973e 086a cabe
00000300: 1d76 c2be fb76 54bf aad5 8bbd 21c6 fdbd
00000310: 4358 1dbf 4f3e 00bf bfee 163f 357f 6d3e
00000320: 42a8 0f3f 6697 1dbf 52be a4be 6644 febe
00000330: ee33 83bd e17d 89be 37e2 353f a04f 443e
00000340: 936e 383e 0a1e ba3e 5b63 05be b63b debe
00000350: 8885 22bf 9bba 3d3f d2bc fe3e 3518 1a3f
00000360: ad5b 3abe 6462 f43e f629 3cbf 1d53 d5be
00000370: 5361 0fbf 4efc 29bf 7dfc 74bd 879b fbbe
00000380: 6797 033f ada8 95be 202f b73e d3e1 1b3f
00000390: e704 0b3f 0364 033f 5d90 4c3e 4d87 0dbf
000003a0: e45e cebe 30d9 123f d3e1 1bbe e9b2 f0be
000003b0: 420c 63bd 728e ca3e 3e93 cfbe 01f0 0fbf
000003c0: c180 66bd f0ec a5be ca2a 833d 93f4 1bbd
000003d0: 6274 ed3d 2629 5bbf 6e1f c63e f079 c4be
000003e0: 0904 f03c 4703 43bf e782 acbe a5c8 0ebf
000003f0: 0435 36be 37a3 ed3d e996 1bbe bcb1 2cbe
-0.2883221 -0.98572946 -0.6999233 -0.42015523 0.24580339 0.21611577 -0.21108398 0.545447
0.4687121 0.04607241 -0.8493677 -0.22731152 -0.06346357 -0.7889861 -0.7180377 -0.54947245
0.34885773 -0.62606907 0.21862198 0.3438358 -0.25059503 -0.6361129 -0.07122791 0.29863828
0.10680002 0.57417566 -0.6233907 -0.47641513 0.1440461 0.010603626 -0.47608033 -0.3055016
-0.28375167 -0.6665229 -0.14618103 -0.20488828 -0.6579125 0.3450029 0.1840472 -0.4770942
0.4923581 -0.6610435 -0.039749697 -0.50409955 0.3256295 -0.32660797 -0.39979634 -0.79724437
0.44355655 0.14553717 -0.56486326 -0.69820803 0.004743366 -0.5401698 -0.77599245 0.59233475
-0.09182886 1.0834262 0.20757952 -0.34848666 -0.8519249 -1.4050587 -0.03343265 0.113435656
-0.540501 -0.4100785 -0.36587277 -0.400046 0.17792013 -0.3006615 -0.33702934 0.3564673
-0.30583453 -0.5267063 -0.33671582 -0.39753786 0.28671008 0.3103805 -0.480306 -0.11952785
-0.0414379 -0.24884586 -0.24884586 0.074050866 -0.33727002 0.18261512 0.047313914 0.36942425
0.50747776 0.5029342 -0.23224448 0.30197024 0.5518646 0.5756308 0.2810001 -0.39528745
-0.36292225 -0.16415282 0.29700336 0.31357515 0.44301927 -0.044145413 -0.1999663 0.57154274
0.6816531 -0.2889016 -0.28558722 -0.16958468 -0.36476356 0.39882782 -0.22942726 0.3507696
0.05748864 0.40001202 -0.514361 -0.26932746 -0.10565762 0.547451 -0.18670718 0.4364529
-0.45655823 0.11623386 -0.4653543 -0.44692442 0.08576174 0.72085935 0.39289138 -0.31267956
0.06711134 -0.57244647 -0.63155776 -0.3064455 0.26044536 -0.3488901 -0.5302241 -0.7835583
-0.16277835 -0.59511316 0.35911235 0.22933413 0.53200185 0.6124466 -0.13766715 -0.020027848
0.7953949 0.12364442 -0.23487352 0.43514696 0.2959325 0.16801395 0.10405467 0.37144208
0.43107635 0.067877226 -0.39708686 0.38975978 -0.8210397 0.14593095 0.5597073 0.36574325
0.336226 -0.19626035 -0.53171515 0.3146335 -0.7175649 -0.17649937 -0.47349256 0.27221966
0.37729028 -0.40755835 0.70869654 0.5151352 0.10825166 0.37420565 0.5710444 0.28417265
0.85976464 -0.21471831 -0.08139685 -0.6195297 -0.3217989 0.00022307005 0.6351294 -0.29349664
-0.5615881 0.58431906 0.24848045 -0.6903968 0.13237435 0.13226292 0.29572517 -0.3953402
-0.37980738 -0.8299405 -0.068278626 -0.12391306 -0.614628 -0.50095075 0.5895805 0.23193057
0.56116116 -0.6155914 -0.32176453 -0.4966156 -0.06406389 -0.2685385 0.710483 0.19171
0.1801093 0.36351043 -0.13026182 -0.4340493 -0.63485 0.7411286 0.49753433 0.60193187
-0.18199034 0.47731316 -0.7350153 -0.41664973 -0.5600788 -0.6640061 -0.059811104 -0.49142095
0.51402897 -0.29230252 0.3577814 0.60891455 0.54304355 0.5132448 0.19976945 -0.5528458
-0.4030677 0.5736265 -0.15222864 -0.47011498 -0.05543161 0.39561802 -0.40542024 -0.5622559
-0.056275133 -0.3240733 0.06404646 -0.03807504 0.11594464 -0.8560966 0.38695854 -0.3837428
0.0292988 -0.76176876 -0.3369362 -0.5577491 -0.17793661 0.116033964 -0.15194286 -0.16864675

model.13.m.0.cv2.conv.bias f4 [16]
00000000: 5d19 37bd 381b 91be 85b2 d03e 1a40 2cbe
00000010: 9a1f b13d 390e a13d 20de d3bd 4cf4 82be
00000020: 1087 c2ba 2c45 513e d92c 96be 4c79 bdbe
00000030: f62b 4c3e afc4 b7bd 055e f6bd 3246 f4bd
-0.044701923 -0.2834108 0.407612 -0.16821328 0.08648606 0.07864041 -0.10345101 -0.2557701
-0.0014841277 0.20436543 -0.2933109 -0.37006605 0.19938645 -0.08973061 -0.120296516 -0.11927451
