model.onnx (onnx, 749494 bytes, 115 tensors)

model.0.conv.conv.weight f4 [8, 12, 3, 3]
0	0x3ed4552d	0.41471234
1	0x3f197c79	0.59955555
2	0xbebdaf13	-0.37047634
3	0xbec62d5d	-0.38706484
4	0xbe9f59c4	-0.31123173
5	0xbe8ba250	-0.27272272
6	0x3f5dd64e	0.8665513
7	0x3f4dc2b1	0.803752
8	0x3d84c22d	0.064823486
9	0x3e2ce645	0.16884716
10	0xbe048e68	-0.12944949
11	0xbecb6f5a	-0.39733392
12	0xbf170f3f	-0.5900764
13	0xbf00ea92	-0.50357926
14	0xbf1e8ab1	-0.61930376
15	0x3f845aa4	1.0340161
16	0x3f47cb83	0.7804491
17	0x3f514ca5	0.81757575
18	0xbefcfab1	-0.49410012
19	0xbed9caee	-0.42537636
20	0xbe5c6bed	-0.21525545
21	0xbde723ab	-0.112861
22	0xbf57c53e	-0.8428534
23	0xbef85403	-0.48501596
24	0x40003561	2.003258
25	0x3fca529f	1.5806464
26	0x3ff1401b	1.8847688
27	0xbea85979	-0.32880762
28	0xbeb93c2a	-0.36178714
29	0xbeb9bd96	-0.36277455
30	0x3f013839	0.50476414
31	0x3f428987	0.759911
32	0xbe81521c	-0.25257957
33	0xbf91b360	-1.1382866
34	0xbfb4c940	-1.4123917
35	0xbfdf40b0	-1.7441616
36	0xbe8c5781	-0.2741051
37	0x3ec73035	0.38903967
38	0xbdc48f37	-0.095976286
39	0x3f71db69	0.9447542
40	0x3e9776c9	0.29582813
41	0xbd4edf6b	-0.050506037
42	0xbf062c8f	-0.5241174
43	0xbf970f3f	-1.1801528
44	0xbf801b7f	-1.0008391
45	0xbf51e7f3	-0.8199455
46	0xbed42168	-0.41431737
47	0xbf0fc793	-0.561639
48	0x3f454467	0.770575
49	0x3ef414de	0.4767217
50	0x3f4fae7e	0.8112563
51	0x3f117f9b	0.56835335
52	0x3dc797bf	0.0974574
53	0x3c592fa0	0.013255984
54	0x3f0d5a59	0.55215985
55	0xbd0f93ce	-0.035053067
56	0xbd85dee8	-0.065366566
57	0xbf0ef87f	-0.55847925
58	0xbf0c8b46	-0.54900014
59	0xbf2f537f	-0.6848678
60	0x3f369b2c	0.71330523
61	0x3f11b360	0.5691433
62	0x3dbcac3b	0.09212538
63	0x3dcb5577	0.099284105
64	0x3e7a25ee	0.24428532
65	0xbf376a3f	-0.71646494
66	0xbe077d0e	-0.13231298
67	0xbdaa2b65	-0.08309058
68	0xbbe6bc21	-0.0070414697
69	0x3f8e434f	1.1114291
70	0x3e528342	0.20557883
71	0x3f562718	0.836534
72	0xbd6d9c44	-0.058010355
73	0x3e4221fd	0.18958278
74	0xbe37367a	-0.17891875
75	0xbe80d0b0	-0.25159216
76	0xbf2ae095	-0.66748935
77	0xbf8ffb57	-1.1248578
78	0x3fcca5f6	1.5988147
79	0x3fa09061	1.2544061
80	0x3fce1058	1.6098738
81	0x3ed2eacb	0.41194758
82	0x3e99ca20	0.30037022
83	0xbf634c10	-0.8878794
84	0x3ef54b7b	0.4790915
85	0x3e58fbdb	0.21189825
86	0x3e4a529f	0.1975808
87	0xbf9accf8	-1.2093801
88	0xbf66885c	-0.9005182
89	0xbfc1d456	-1.5142925
90	0x3e009ceb	0.1255986
91	0x3da24869	0.079239674
92	0xbe1048ff	-0.14090346
93	0x3f0b886e	0.5450505
94	0xbe3ba964	-0.18326336
95	0x3e73798f	0.2377684
96	0xbed8fbdb	-0.4237965
97	0xbf001b7f	-0.50041956
98	0xbf35648f	-0.70856565
99	0xbf87fe7a	-1.0624535
100	0xbeac7ebc	-0.3369044
101	0xbf0c3d9f	-0.54781526
102	0x3eb28fcc	0.34875333
103	0x3ee0774d	0.4384102
104	0x3efbf7d9	0.4921253
105	0xbe30d7c3	-0.17269807
106	0xbed01608	-0.40641809
107	0xbc2e9e4e	-0.01065786
108	0xbef7e23d	-0.48414794
109	0xbe190055	-0.14941533
110	0xbef2e200	-0.4743805
111	0x3e23f304	0.16010672
112	0xbd252a6d	-0.040323664
113	0x3e985354	0.29751074
114	0x3f7e5f16	0.9936384
115	0x3f135318	0.57548666
116	0x3f0c06a3	0.54697627
117	0x3f524f29	0.8215204
118	0x3f7adb76	0.9799112
119	0x3f4b6a82	0.79459393
120	0x3e8edd42	0.2790318
121	0x3e1e45c6	0.15456304
122	0xbe9b0759	-0.30279043
123	0x3e1a5a58	0.15073526
124	0xbf00cec1	-0.5031548
125	0xbf0113f5	-0.50421077
126	0xbda3689c	-0.07978937
127	0xbea2bb9b	-0.31783757
128	0xbf0055a7	-0.50130695
129	0xbecb8d1c	-0.39756095
130	0xbec68cdf	-0.3877935
131	0xbf027f44	-0.5097544
132	0xbe9830ba	-0.29724675
133	0xbec4eda9	-0.3846257
134	0xbe71aa97	-0.23600231
135	0xbeca107f	-0.3946571
136	0xbdc6f4ad	-0.09714637
137	0xbeb131ea	-0.34608394
138	0x3f0b3708	0.54380846
139	0x3f5a2604	0.8521426
140	0x3f475c7a	0.77875483
141	0x3f8cd63e	1.1002882
142	0x3fb1bc51	1.3885595
143	0x3f351d58	0.707479
144	0x3d907c79	0.07054991
145	0x3e914c14	0.28378356
146	0x3ed209f5	0.41023222
147	0x3dc57810	0.09642041
148	0xbe3c2498	-0.18373334
149	0xbeddeed8	-0.43346286
150	0xbf012542	-0.50447476
151	0xbf0ebaa8	-0.55753565
152	0xbeef192c	-0.46698892
153	0x3dd0258b	0.10163411
154	0xbdbeb603	-0.0931206
155	0xbf6f3bc6	-0.9345058
156	0x3e78b1d8	0.24286592
157	0xbf0dc873	-0.55383986
158	0xbf041e7b	-0.5160901
159	0xbec2c40b	-0.38040194
160	0xbf0a5620	-0.54037666
161	0xbf1fe4fc	-0.6245878
162	0xbf3084e9	-0.68952805
163	0xbed117c0	-0.40838432
164	0xbed886ce	-0.42290348
165	0x3da04cca	0.07827146
166	0x3cf77a6f	0.030209748
167	0x3daec318	0.08533305
168	0x3f041e7b	0.5160901
169	0x3f5478c6	0.82996786
170	0x3f563a96	0.83683145
171	0x3f2c76e1	0.67368895
172	0x3fa8d0a7	1.3188676
173	0x3f4c3a1d	0.79776174
174	0xbe3efb37	-0.18650518
175	0x3ea507d3	0.32232532
176	0xbe19cff1	-0.1502073
177	0xbe6e4991	-0.23270251
178	0x3dbfcad2	0.09364857
179	0xbf0c6e71	-0.5485602
180	0xbd92eb4a	-0.07173784
181	0xbe4a55b3	-0.19759254
182	0xbde6b7e9	-0.11265547
183	0xbdc51043	-0.09622242
184	0xbe61b7ac	-0.22042722
185	0xbec41e0e	-0.3830418
186	0xbe9260e3	-0.28589544
187	0xbf03fbe1	-0.5155621
188	0xbf303fb5	-0.6884721
189	0xbcfce279	-0.03086971
190	0x3e72e200	0.23719025
191	0xbdcd7186	-0.100314185
192	0x3e9f7d2f	0.31150195
193	0x3f293874	0.66101766
194	0x3dfbf044	0.123016864
195	0x3f4b6a82	0.79459393
196	0x3f40bd07	0.7528843
197	0x3f28463f	0.6573219
198	0x3e570a32	0.20999983
199	0x3ee3e14a	0.4450782
200	0x3e2ea07f	0.17053412
201	0x3e9830ba	0.29724675
202	0xbe95e483	-0.29275903
203	0xbec5bd44	-0.3862096
204	0xbecf55f0	-0.40495253
205	0xbd86c133	-0.065798186
206	0xbf1014ab	-0.56281537
207	0x3dd24f29	0.10269005
208	0xbe5f48db	-0.21805136
209	0xbf017bc2	-0.50579464
210	0xbdd65d30	-0.10466993
211	0xbecd7186	-0.40125674
212	0xbe9fe4fc	-0.3122939
213	0xbedab06c	-0.42712724
214	0xbf0a2239	-0.5395847
215	0xbee6fd1d	-0.45114985
216	0xbf373e8c	-0.71579814
217	0xbeb8dc8a	-0.36105758
218	0x3f4f6690	0.8101587
219	0xbe6f232b	-0.2335326
220	0x3dc736b9	0.097272344
221	0x3f5e283e	0.86780155
222	0x3f3d68e4	0.73988175
223	0x3e5b8781	0.2143841
224	0xbfa6c4ff	-1.3028868
225	0x3d991fee	0.07476793
226	0xbf1de009	-0.61669976
227	0xbec7d1f8	-0.3902738
228	0x3f9b256c	1.2120795
229	0x3f3483ef	0.70513815
230	0x3ddd8cff	0.108179085
231	0x400467a6	2.0688262
232	0x3f6f8aaa	0.9357096
233	0xbf075603	-0.5286562
234	0x3eb1fd12	0.3476339
235	0xbe8d805c	-0.27636993
236	0x3ebc1886	0.3673746
237	0xbf46e919	-0.7769943
238	0xbf8872a2	-1.0659983
239	0xbf7b77dc	-0.98229766
240	0x3efb441d	0.49075404
241	0x3edff9fc	0.4374541
242	0xbfc14020	-1.5097694
243	0x3e0bfc3e	0.13670442
244	0x3f000f0c	0.5002296
245	0xbb6c826e	-0.0036088484
246	0x3f4e49f1	0.80581576
247	0xbeaf0eb5	-0.34190908
248	0xbe72c6a7	-0.23708592
249	0x3e3977c9	0.181121
250	0xbdc242df	-0.09485411
251	0xbedef73d	-0.43548003
252	0x3f6fbe6a	0.93649924
253	0xbb88f401	-0.004179478
254	0xbef32e26	-0.47496146
255	0x3fe0617c	1.752975

model.0.conv.conv.bias f4 [8]
0	0xbea9505c	-0.33069122
1	0xbe191e9e	-0.14953086
2	0xbf063de1	-0.5243817
3	0xbf20248c	-0.62555766
4	0xbe99b9ce	-0.3002457
5	0xbf086190	-0.5327387
6	0xbe0bc1d8	-0.13648164
7	0x3fa83ed1	1.314417

model.1.conv.weight f4 [8, 8, 3, 3]
0	0x3c9802c4	0.018556006
1	0xbc5a6d53	-0.013331729
2	0x3ce6a7a4	0.02815611
3	0xbd94ebf3	-0.07271566
4	0xbc309859	-0.01077851
5	0x3cdad02d	0.026710594
6	0xbd09da31	-0.03365535
7	0x3cca7770	0.024715155
8	0xbd6c935f	-0.05775773
9	0xbdf9d54b	-0.121988855
10	0xbe4e120f	-0.20124076
11	0xbe60fdcf	-0.2197182
12	0xbc00a637	-0.007852129
13	0xbd1049ba	-0.03522656
14	0xbe404c55	-0.18779118
15	0xbd7db1d0	-0.061937153
16	0xbdc679f7	-0.09691232
17	0xbdbbaa1c	-0.09163305
18	0x3e2aee85	0.1669255
19	0x3dabb439	0.08383984
20	0xbd5c3aa2	-0.053766854
21	0x3e05fdab	0.13085048
22	0x3c7c475b	0.015397872
23	0xbe025293	-0.12726812
24	0x3d7fe1f9	0.062471364
25	0x3e1237fc	0.14279169
26	0x3e1844ab	0.14869945
27	0x3dfc2667	0.12312012
28	0xbc99af20	-0.018760264
29	0x3d55ec0c	0.052227065
30	0xbe0b6599	-0.13612975
31	0xbe21ebf8	-0.15812671
32	0xbe8fc5ec	-0.2808069
33	0xbc9c003d	-0.019043082
34	0xbd2fd2a5	-0.042925496
35	0xbd4449ce	-0.047921948
36	0x3d070546	0.032964014
37	0xbc4df11b	-0.012569691
38	0xbd8b23b2	-0.06793918
39	0x3d9a95c8	0.075481
40	0x3e084ec8	0.13311303
41	0x3c201ea9	0.009772935
42	0xbe25e971	-0.16202332
43	0xbd0a1c17	-0.033718195
44	0x3d21891e	0.039437406
45	0xbdb0148c	-0.08597669
46	0x3dacdcc7	0.084405474
47	0x3d3265a8	0.04355398
48	0x3d950ce7	0.072778516
49	0x3dd02145	0.10162596
50	0x3da01ea9	0.07818348
51	0x3e0caf1b	0.13738672
52	0x3d753311	0.059863154
53	0x3da90042	0.08252002
54	0xbe30357f	-0.17207907
55	0xbe5e8bbf	-0.21732996
56	0xbdfb81a7	-0.122805886
57	0xbda0a276	-0.07843487
58	0xbddaf120	-0.10690522
59	0x3cd8c0f7	0.0264592
60	0x3e634eec	0.22198075
61	0x3e09da31	0.1346214
62	0x3e359d6d	0.17735834
63	0xbe27f8a7	-0.16403447
64	0x3e2bb439	0.16767968
65	0x3dea214f	0.11432134
66	0x3bde07f1	0.006775849
67	0xbdc27c7f	-0.09496402
68	0xbe10ee7a	-0.14153472
69	0x3d024219	0.031801317
70	0x3dbc90c3	0.092072986
71	0xbd26af25	-0.040694375
72	0xbb39fdfb	-0.0028380144
73	0xbde1d0b4	-0.11026135
74	0xbd1c1ff1	-0.0381164
75	0xbd8fae17	-0.07015627
76	0xbc76c861	-0.0150624225
77	0xbd5de4ad	-0.05417316
78	0xbbfa8dc9	-0.0076462966
79	0x3c9a3d3c	0.018828027
80	0xbc9312f5	-0.017953375
81	0xbb7a8dc9	-0.0038231483
82	0xbda98ccc	-0.08278808
83	0xbd0ada5e	-0.033899657
84	0x3be78c20	0.0070662647
85	0xbd955634	-0.072918326
86	0x3c0e65da	0.0086912755
87	0xbe082346	-0.13294706
88	0xbe2e134a	-0.16999546
89	0xbd8aa071	-0.06768883
90	0xba04f854	-0.0005072404
91	0x3df48522	0.119394556
92	0x3dbb5987	0.09147935
93	0x3db8efab	0.09030088
94	0x3e5cd65d	0.21566148
95	0x3e229c72	0.15879992
96	0x3bd68079	0.006546077
97	0x3df10cf4	0.11770049
98	0x3dd05134	0.10171738
99	0xbdfd44e1	-0.12366653
100	0xbdec129d	-0.11526988
101	0xbc7c83cd	-0.015412283
102	0x3bef8acb	0.0073102466
103	0xbd7d6b7f	-0.061870094
104	0x3c81ba13	0.015835797
105	0xbcf02542	-0.02931464
106	0xbd18a7c4	-0.03726937
107	0xbc0c5c88	-0.008566983
108	0x3d330da1	0.04371417
109	0x3d74d25d	0.05977093
110	0x3c10488e	0.008806361
111	0xbd14e25b	-0.036348682
112	0x3ca3f7fe	0.020015713
113	0x3ce7d95b	0.028301885
114	0xbc1e6330	-0.009667203
115	0x3df1f4a7	0.11814242
116	0x3da3104b	0.07962092
117	0xbbeb7826	-0.0071859537
118	0x3d165136	0.036698543
119	0xbd105bdd	-0.035243858
120	0xbd3cb513	-0.046071123
121	0xbdf02542	-0.11725856
122	0xbdb30da1	-0.08742834
123	0xbdcef5a8	-0.10105449
124	0xbdb611f5	-0.08890144
125	0x3d482beb	0.04887001
126	0x3daf4838	0.085586965
127	0x3dd984cd	0.10621033
128	0x3c7c3691	0.015393869
129	0x3d97acc2	0.07405998
130	0x3dca488c	0.098771185
131	0xbc40a11a	-0.01175716
132	0x3d6352de	0.05549895
133	0x3b6a1c9a	0.0035722614
134	0xbd13e759	-0.036109302
135	0x3bb685ce	0.00557015
136	0x3c6a1c9a	0.014289046
137	0xbb30f100	-0.0026999116
138	0x3de15cda	0.11004038
139	0x3ca140e6	0.019684266
140	0x3d363892	0.044487543
141	0x3de2df04	0.11077693
142	0x3d0619f3	0.03273959
143	0x3d498777	0.049201455
144	0xbd9b886a	-0.07594378
145	0xbd401654	-0.046896294
146	0xbd2edf0d	-0.042693187
147	0x3c90184b	0.017589709
148	0x3e0dbc8e	0.13841459
149	0xbaa8bd57	-0.001287381
150	0xbd699817	-0.05702981
151	0x3daa8224	0.083256036
152	0x3debb774	0.115096
153	0x3ca11332	0.019662473
154	0x3dbd9c68	0.09258348
155	0x3e24bafc	0.16086954
156	0x3cc78419	0.024354981
157	0x3d0e8fdd	0.034805167
158	0x3c750836	0.014955571
159	0xbdd7abb1	-0.105307944
160	0xbd8d61ff	-0.06903457
161	0xbe1255d8	-0.1429056
162	0xbe26436a	-0.16236654
163	0xbcd3c787	-0.025851978
164	0xbc9f8ac4	-0.019475348
165	0xbe05b7da	-0.13058415
166	0xbc8a14c4	-0.016855605
167	0x3d30fe6a	0.04321138
168	0xbdc39fef	-0.09551989
169	0x3d24240d	0.040073443
170	0x3e141aa5	0.14463289
171	0xbdd403e7	-0.10352307
172	0xbe59acde	-0.2125735
173	0xbe525d49	-0.20543398
174	0xbc45a11c	-0.012062337
175	0x3deb5ce4	0.11492327
176	0xbd5f7406	-0.054554008
177	0x3e0fbdbc	0.14037222
178	0x3d3dd8c7	0.046349313
179	0xbcf36198	-0.029709622
180	0xbe2ec0de	-0.1706576
181	0xbe1d8997	-0.15384518
182	0xbdf72793	-0.12068095
183	0x3cc03484	0.023462541
184	0x3c6df500	0.014523745
185	0x3e3e8de6	0.18608817
186	0x3d9cd478	0.07657713
187	0x3e5adabc	0.21372503
188	0x3eb7f370	0.35927916
189	0x3c48b1f7	0.012249461
190	0xbdb286d8	-0.08717126
191	0xbcb4c465	-0.022066304
192	0x3da27d70	0.079340816
193	0x3dc1f951	0.094713815
194	0x3db811a0	0.08987737
195	0x3d342d76	0.043988667
196	0x3e0c8eb0	0.13726306
197	0x3e7eb387	0.24873172
198	0x3c32a508	0.010903604
199	0x3d790a90	0.06080109
200	0x3cd860d0	0.026413351
201	0xbd2990a5	-0.04139771
202	0x3d258e4b	0.040418904
203	0x3c3c322a	0.011486569
204	0x3dfc1b6b	0.12309917
205	0x3e10af3a	0.14129344
206	0x3e013cc1	0.12620832
207	0x3d2021b3	0.039094638
208	0x3dcad154	0.099032074
209	0xbd890515	-0.066904224
210	0x3dfab12d	0.12240825
211	0xbdda259e	-0.10651706
212	0xbe664adc	-0.22489494
213	0xbca84497	-0.020540519
214	0x3cd915ef	0.026499717
215	0xbe2c0a92	-0.16800907
216	0xbc39c95f	-0.0113395145
217	0xbdc27d5c	-0.09496567
218	0x3d05727f	0.032579895
219	0xbc5c9953	-0.01346429
220	0x3d3ac0ed	0.045594145
221	0x3dd3e556	0.10346477
222	0x3c9d6177	0.019211514
223	0x3cea0424	0.028566428
224	0x3d9a1df8	0.07525247
225	0xbd1f6f84	-0.03892471
226	0x3b6e014e	0.0036316696
227	0x3dc40fa3	0.09573295
228	0x3ce682c2	0.028138522
229	0x3e303cc6	0.17210683
230	0x3d37da43	0.044885885
231	0x3cb3236f	0.021867482
232	0x3d55f364	0.05223407
233	0xbdf9013c	-0.121584386
234	0xbde0b56f	-0.10972106
235	0xbe01b339	-0.12666024
236	0xbd8aa519	-0.06769771
237	0xbd5747c7	-0.052558687
238	0xbd9b725b	-0.07590171
239	0x3cfd5b3a	0.03092729
240	0xbe45dfcd	-0.19323654
241	0xbe6682c2	-0.22510818
242	0xbe3d0cde	-0.1846194
243	0x3d9e77f6	0.077377245
244	0x3debd44e	0.11515103
245	0x3c52341e	0.0128298085
246	0xbc9b914d	-0.018990183
247	0xbde0d460	-0.10978007
248	0xbde7b833	-0.1131443
249	0x3d2cf947	0.042229917
250	0xbdde2b9a	-0.1084816
251	0xbe186cbf	-0.14885233
252	0xbd94eb5d	-0.072714545
253	0xbde16f19	-0.11007518
254	0xbe0fd7b4	-0.14047128
255	0xbe0704c5	-0.13185413

model.1.conv.bias f4 [8]
0	0x3f3ab5c3	0.72933596
1	0x3f4e0715	0.80479556
2	0x3deaf8be	0.11473225
3	0x3eefd406	0.4684145
4	0x3f2698c0	0.6507683
5	0xbed77583	-0.42081842
6	0x3f285290	0.6575098
7	0x3e165e9d	0.1468453

model.2.cv1.conv.weight f4 [4, 8, 1, 1]
0	0xbf4890cf	-0.7834596
1	0xbe50479c	-0.20339817
2	0xbe98f8aa	-0.29877216
3	0xbf2b74bb	-0.6697499
4	0xbf5f6ab0	-0.8727217
5	0x3edfda78	0.43721366
6	0xbe61048e	-0.21974394
7	0x3d627928	0.055291325
8	0x3eb9c308	0.3628161
9	0xbea170b9	-0.31531313
10	0x3e17c2e7	0.14820443
11	0x3eb32f63	0.3499709
12	0x3ea56943	0.3230687
13	0xbf048709	-0.5176855
14	0x3f5490ae	0.83033264
15	0xbf574b8d	-0.84099656
16	0xbea7a250	-0.32741022
17	0xbefb7f7d	-0.49120703
18	0xbf4898ed	-0.78358346
19	0x3f652595	0.8951047
20	0xbf236870	-0.63831234
21	0xbec416ed	-0.3829874
22	0xbef12ae9	-0.4710305
23	0xbeae7d5a	-0.3408001
24	0x3e4ee831	0.20205761
25	0xbf9bc3ff	-1.2169188
26	0x3de7ad3c	0.11312339
27	0x3e783098	0.24237287
28	0x3ed5af4e	0.4173531
29	0xbf0e5552	-0.5559894
30	0xbe06b161	-0.13153602
31	0x3d9850aa	0.074372604

model.2.cv1.conv.bias f4 [4]
0	0x3fb63cfe	1.4237363
1	0x3d33056a	0.043706335
2	0x3fa4a71d	1.2863499
3	0x3f86dff6	1.0537097

model.2.cv2.conv.weight f4 [4, 8, 1, 1]
0	0x3f127d15	0.5722211
1	0x3f7ed192	0.9953853
2	0x3e42a53e	0.19008347
3	0xbf6ff574	-0.93733907
4	0xbf766135	-0.96242076
5	0xbec507c7	-0.38482496
6	0x3f6466b2	0.892192
7	0xbe8921e6	-0.26783675
8	0x3e89ab3a	0.26888448
9	0x3f87547c	1.0572658
10	0x3e444d15	0.1917003
11	0xbf4d5578	-0.8020854
12	0x3f354cdf	0.7082042
13	0x3e919290	0.2843213
14	0x3f034c2b	0.512881
15	0xbf61d1a1	-0.88210493
16	0x3f4d0e4f	0.8009996
17	0xbebdac87	-0.3704569
18	0x3f5ba9c9	0.85805947
19	0x3e781a6e	0.24228832
20	0x3d5d52ba	0.054033972
21	0xbfa1ad33	-1.2630981
22	0xbfc13711	-1.509493
23	0x3ef61c81	0.48068622
24	0xbf3ee128	-0.7456231
25	0xbe949f7d	-0.2902793
26	0x3e176d5e	0.14787814
27	0x3f86b2dc	1.0523334
28	0x3f624543	0.88386935
29	0xbfd458a1	-1.6589547
30	0x3e24c579	0.16090955
31	0xbe778b3a	-0.24174204

model.2.cv2.conv.bias f4 [4]
0	0xbf65266a	-0.8951174
1	0xbf61120e	-0.87918174
2	0x3f848e98	1.0356016
3	0x3f50d682	0.8157731

model.2.cv3.conv.weight f4 [8, 8, 1, 1]
0	0xbf625342	-0.8840829
1	0xbdfba7d0	-0.12287867
2	0xbef7be22	-0.48387247
3	0xbdcc7ef0	-0.09985149
4	0xbe14e48b	-0.14540307
5	0x3e85728c	0.26063955
6	0xbe7b3e60	-0.24535513
7	0xbde953bc	-0.11392924
8	0xbf3254b5	-0.696605
9	0xbf806f4d	-1.0033966
10	0xbdae0385	-0.08496765
11	0xbf3c20a1	-0.7348729
12	0xbec4c301	-0.38430026
13	0x3b6f1a55	0.00364842
14	0xbd90203a	-0.07037397
15	0xbd8ca394	-0.068671376
16	0x3f0a59e8	0.54043436
17	0x3e12d8ed	0.14340563
18	0xbf215284	-0.63016534
19	0xbe8db52d	-0.2767729
20	0x3ea44260	0.3208189
21	0x3ef5067c	0.4785651
22	0xbeb921f1	-0.36158708
23	0xbecd2ab1	-0.40071633
24	0xbcdc65c9	-0.026904004
25	0xbf00bd01	-0.502884
26	0x3d6a56dc	0.05721174
27	0xbe8154e1	-0.2526007
28	0x3dd3a59e	0.10334323
29	0x3c26691b	0.010156895
30	0x3ca15e29	0.01969822
31	0xbeb7c377	-0.35891315
32	0xbf3d5f7b	-0.73973817
33	0x3e9b6114	0.30347502
34	0x3e0fc7ce	0.14041063
35	0x3e1a3648	0.15059769
36	0x3e6b9f3b	0.2300996
37	0xbecf06c1	-0.4043484
38	0x3de65ea7	0.11248522
39	0x3ebc34b0	0.36758947
40	0xbe0afb04	-0.13572317
41	0x3edae05b	0.42749295
42	0x3de8dec1	0.11370612
43	0x3d21f1d2	0.03953726
44	0xbe2b4616	-0.16725954
45	0x3ebea654	0.37236273
46	0xbf6c1976	-0.9222635
47	0x3dab64b4	0.08368817
48	0x3dbae1a9	0.091250725
49	0xbe2503b2	-0.16114691
50	0x3e8bdf44	0.27318776
51	0x3e6b6ea1	0.2299142
52	0xbf083629	-0.5320764
53	0xbefbcef1	-0.4918132
54	0xbedb0e52	-0.42784363
55	0xbe7aa703	-0.24477772
56	0xbe27d241	-0.16388799
57	0x3d9c1663	0.076214574
58	0xbeaf9930	-0.3429656
59	0xbf2a240a	-0.6646124
60	0x3eac0d0b	0.336037
61	0xbf0cab73	-0.5494911
62	0xbf200b52	-0.62517273
63	0xbedce581	-0.43143848

model.2.cv3.conv.bias f4 [8]
0	0x3fafa04d	1.3720795
1	0x3fc5d866	1.5456665
2	0x3e5ac32b	0.21363513
3	0x3fad93da	1.3560746
4	0x3edb5b4b	0.42843089
5	0x3ababe78	0.0014247438
6	0x3f104cae	0.56367004
7	0x3fbc09d2	1.4690497

model.2.m.0.cv1.conv.weight f4 [4, 4, 1, 1]
0	0xbf8857f0	-1.0651836
1	0x3ecf9444	0.40542805
2	0xbf72f79a	-0.9490906
3	0xbed84faf	-0.42248294
4	0x3f1dd087	0.6164631
5	0xbf8f8a78	-1.1214132
6	0xbef40f4a	-0.47667915
7	0xbf25a7b0	-0.64708996
8	0x3e016a81	0.12638284
9	0xbfb8d70a	-1.4440625
10	0x3f9c408d	1.2207199
11	0x3f437d89	0.76363426
12	0xbf12915e	-0.5725306
13	0x3f036148	0.51320314
14	0xbfc19e45	-1.5126425
15	0x3f819310	1.0123005

model.2.m.0.cv1.conv.bias f4 [4]
0	0x3f8a65ca	1.0812314
1	0x3e9a9b30	0.30196524
2	0xbf3b8414	-0.7324841
3	0x3f0a0cc2	0.53925717

model.2.m.0.cv2.conv.weight f4 [4, 4, 3, 3]
0	0x3f002c20	0.5006733
1	0x3ec34d5f	0.38144967
2	0xbcbdb8df	-0.023159442
3	0x3e240522	0.16017583
4	0x3ed9f5ee	0.42570442
5	0xbe364836	-0.17800984
6	0x3e2b75cb	0.16744153
7	0xbe17977b	-0.14803879
8	0xbecbed0c	-0.3982929
9	0xbdce4b13	-0.10072913
10	0x3e40ef57	0.18841301
11	0x3dbf132d	0.09329829
12	0xbe1844a2	-0.14869931
13	0xbc27922d	-0.010227722
14	0x3e768990	0.24075913
15	0xbf0b6ac3	-0.5445978
16	0xbf3fc053	-0.7490284
17	0x3dab8b70	0.08376205
18	0xbccd72a3	-0.025079077
19	0xbede04d6	-0.43363065
20	0xbe1ceb0c	-0.15324038
21	0x3deec253	0.11658158
22	0xbdfd4d13	-0.12368216
23	0x3e50a91a	0.20377007
24	0xbd838de2	-0.064235464
25	0x3dd30722	0.10304095
26	0x3e701ca1	0.23448421
27	0xbecdf480	-0.402256
28	0xbf548cb9	-0.83027226
29	0xbef6b4da	-0.48184854
30	0xbe4ae952	-0.19815567
31	0xbe64467c	-0.22292513
32	0xbecb9678	-0.39763236
33	0x3e25b603	0.16182713
34	0xbe406d7a	-0.18791762
35	0xbe82e0bb	-0.2556208
36	0x3e8a9521	0.270669
37	0xbe446ff8	-0.19183338
38	0xbebbcc50	-0.36679316
39	0x3e9087e8	0.28228688
40	0x3e2198d5	0.15780957
41	0xbded8265	-0.115971364
42	0x3f097313	0.53691214
43	0x3ee2bee4	0.44286263
44	0x3eb9ac76	0.3626439
45	0x3e8b3848	0.27191377
46	0xbd4329a8	-0.04764715
47	0xbe4b84cd	-0.19874878
48	0x3edfc580	0.43705368
49	0x3e27f862	0.16403344
50	0xbe7943b2	-0.2434223
51	0xbdaf55ba	-0.08561273
52	0x3eeda6a7	0.46416208
53	0x3e6691d2	0.22516564
54	0x3e2f3178	0.17108715
55	0xbd7a65c0	-0.061132193
56	0xbdd76a5b	-0.105183326
57	0xbeb98835	-0.3623673
58	0xbe971dd7	-0.29514953
59	0xbeedcae8	-0.46443868
60	0xbc9cec5d	-0.019155676
61	0xbe8f9c3d	-0.28048888
62	0xbedfa13e	-0.43677706
63	0x3d56fd96	0.052487932
64	0xbed54a82	-0.41658407
65	0xbf2deb29	-0.6793695
66	0x3df2531f	0.1183226
67	0xbedfe9c2	-0.4373303
68	0xbeec17d4	-0.4611193
69	0x3f09186f	0.5355291
70	0x3e9ec3b3	0.31008682
71	0x3e2dc6e7	0.16970406
72	0xbe248d2c	-0.16069478
73	0xbe977f42	-0.29589278
74	0xbd627f50	-0.055297196
75	0xbe2422be	-0.16028878
76	0xbedbd86d	-0.42938557
77	0xbea91fe9	-0.33032158
78	0xbe9be76c	-0.30449998
79	0xbe25a1e5	-0.16175039
80	0xbebe93b8	-0.37222075
81	0x3ecab77d	0.39593115
82	0xbe9913b1	-0.29897836
83	0x3eadc7ee	0.33941597
84	0x3e6df8cb	0.23239438
85	0xbdb8c1b2	-0.090213194
86	0xbdb0f0cd	-0.08639679
87	0x3d7f444d	0.062320996
88	0xbe8daf80	-0.27672958
89	0xbdf375ad	-0.11887679
90	0x3c9fba95	0.019498149
91	0xbe34443f	-0.17604159
92	0x3e9341ab	0.28761038
93	0xbdbcea00	-0.092243195
94	0xbece8aa6	-0.40340155
95	0xbe85499b	-0.2603272
96	0xbe0b860f	-0.13625358
97	0x3f020b72	0.50798714
98	0xbdc4bae4	-0.09605959
99	0xbe889d0c	-0.26682317
100	0x3e08080b	0.13284318
101	0x3c828b2a	0.0159355
102	0xbda20e97	-0.07912939
103	0x3efb9bb6	0.49142236
104	0xbdc6649d	-0.09687159
105	0x3d54b1d2	0.051927395
106	0x3d685156	0.056718193
107	0xbe038a99	-0.1284584
108	0xbd4a3233	-0.04936428
109	0xbe189402	-0.1490021
110	0x3e6105d2	0.21974877
111	0x3e711f1d	0.23547025
112	0x3eb22b04	0.34798443
113	0x3ed89ce8	0.4230721
114	0xbea45a16	-0.3209998
115	0xbe0ae1d5	-0.1356271
116	0xbcfd7ef9	-0.030944334
117	0xbf051d8d	-0.51998216
118	0xbe921730	-0.28533316
119	0xbef047d2	-0.46929795
120	0xbe3be63f	-0.1834955
121	0xbdfa5f51	-0.122252114
122	0xbd94bbd1	-0.07262386
123	0xbda34548	-0.07972199
124	0x3db49222	0.08816935
125	0x3e3ab2af	0.18232225
126	0x3e059893	0.13046484
127	0x3e2fc3e6	0.17164573
128	0x3a061399	0.00051146146
129	0xbdcf3df2	-0.10119237
130	0x3e1b5765	0.15170057
131	0x3dda2cbc	0.10653064
132	0x3e9c4d71	0.30527833
133	0x3e3cbd89	0.18431677
134	0x3e311636	0.17293629
135	0xbf13c5c5	-0.5772365
136	0xbdb6da7f	-0.089283936
137	0xbe81455c	-0.2524823
138	0xbb1a23d5	-0.0023519893
139	0x3c8d2a32	0.017232034
140	0x3d8e7c83	0.069573425
141	0x3ea58da5	0.3233463
142	0x3ef5ce98	0.4800918
143	0xbca0de2a	-0.019637186

model.2.m.0.cv2.conv.bias f4 [4]
0	0x3f61315f	0.8796596
1	0xbf1b7f02	-0.60740674
2	0x3f2faebf	0.68626016
3	0x3f58ee40	0.8473854

model.3.conv.weight f4 [16, 8, 3, 3]
0	0x3d73d900	0.05953312
1	0xbde0464c	-0.10950908
2	0x3da43aed	0.08019052
3	0x3e795a43	0.24350838
4	0x3e59237b	0.21204941
5	0x3e617f78	0.22021282
6	0x3bd6148f	0.0065332125
7	0x3c2230fa	0.009899372
8	0xbbd0c77e	-0.0063714376
9	0xbdffe07f	-0.12493991
10	0x3d6d1e92	0.057890482
11	0x3c7b3004	0.015331272
12	0xbdcaf7f1	-0.09910572
13	0x3dcd502e	0.10025059
14	0xbd4695c0	-0.048482656
15	0x3d84d4ec	0.06485924
16	0x3db39fa2	0.08770682
17	0x3c543ece	0.012954427
18	0xbcaa3eac	-0.020781837
19	0xbe2b91f0	-0.1675489
20	0xbe6cea60	-0.23136282
21	0x3cd5ac2b	0.026083073
22	0x3d74a9c8	0.05973223
23	0x3e26932a	0.16267076
24	0x3e27e66e	0.16396496
25	0x3c40fa65	0.011778449
26	0x3d2763f2	0.0408668
27	0xbdd886e5	-0.10572604
28	0xbe55ac2b	-0.20866458
29	0xbe11c74b	-0.1423618
30	0xbdea780a	-0.11448677
31	0xbd7b3004	-0.06132509
32	0xbe45c4f9	-0.1931342
33	0x3c4a4142	0.01234466
34	0x3c9de8e3	0.019276088
35	0x3d5bca03	0.05365945
36	0x3dd6e556	0.10492961
37	0xbd5dd3f6	-0.05415722
38	0xbcdc6699	-0.026904391
39	0x3db716f2	0.08939923
40	0x3d8381a8	0.06421214
41	0xbdcd502e	-0.10025059
42	0xbe3aa85b	-0.18228285
43	0xbe4f8e53	-0.20269136
44	0xbdb801d2	-0.08984722
45	0x3d1f5640	0.038900614
46	0xbd1382f3	-0.036013555
47	0x3e08b4a0	0.13350153
48	0xbb7fe07f	-0.0039043722
49	0x3cc93c49	0.024564879
50	0x3e49bec5	0.19701679
51	0x3ddac50a	0.106821135
52	0x3ded86f6	0.115980074
53	0xbd29a216	-0.041414343
54	0xbc3f0a8b	-0.0116602285
55	0xbd0f06aa	-0.034918465
56	0x3ddbca03	0.1073189
57	0xbe8381a8	-0.25684857
58	0xbe5fdde9	-0.21861996
59	0xbe90dc6b	-0.28293166
60	0xbe0fbd58	-0.14037073
61	0x3cd3a238	0.025834188
62	0xbd8de798	-0.069289386
63	0x3df4ddfa	0.11956401
64	0x3d5d032e	0.05395811
65	0x3d679d50	0.05654651
66	0x3cf92611	0.03041366
67	0xbe1f07f5	-0.15530379
68	0xbd5886e5	-0.05286302
69	0x3d9aa5c5	0.07551149
70	0x3dc85168	0.09781152
71	0xbb0e9e46	-0.0021761819
72	0xbb8facf2	-0.0043846304
73	0xbc88bdbe	-0.016692039
74	0xbe34a8b0	-0.17642474
75	0xbd4dd77a	-0.050254323
76	0xbe5312aa	-0.20612589
77	0x3d2249f6	0.039621316
78	0xbe8a3378	-0.26992393
79	0xbe0113ad	-0.12605162
80	0xbdff3be6	-0.124625966
81	0x3d8dd9c9	0.06926305
82	0xbe2a5175	-0.16632636
83	0x3cf1f937	0.02953778
84	0x3e2076cd	0.15670319
85	0x3e571669	0.21004643
86	0x3ddff7eb	0.109359585
87	0x3decbe07	0.11559682
88	0x3e824b1d	0.25447932
89	0x3e02c7b1	0.12771489
90	0xbdd13f81	-0.102171905
91	0xbe50c2ee	-0.2038686
92	0x3b90e462	0.0044217566
93	0xbe148ab3	-0.14506035
94	0xbe5b5873	-0.2142046
95	0xbe34e6fa	-0.17666236
96	0xbe441bf7	-0.19151293
97	0xbd0aee55	-0.033918697
98	0x3e1c9232	0.15290144
99	0xbd8c44ea	-0.06849082
100	0xbebe06c5	-0.3711454
101	0xbdb40cf8	-0.08791536
102	0xbe6fc89f	-0.23416375
103	0xbe65ced3	-0.22442178
104	0xbd321aab	-0.043482464
105	0x3d8f8dcd	0.07009468
106	0x3e77ef44	0.24212366
107	0x3d618cc9	0.055065904
108	0x3d8f4f83	0.069975875
109	0x3e7d0b4f	0.24711345
110	0x3da22ad1	0.07918323
111	0x3dffb879	0.12486357
112	0xbda8bc96	-0.08239095
113	0xbdfa9c6e	-0.12236868
114	0xbdec4173	-0.11535921
115	0xbe059400	-0.13044739
116	0xbeb86e26	-0.36021537
117	0xbd8d3e11	-0.06896604
118	0x3dd5241c	0.10407278
119	0x3dd96625	0.10615186
120	0x3dc39f63	0.09551885
121	0xbe706458	-0.23475778
122	0xbdfe42bf	-0.124150746
123	0x3bb46a67	0.005505848
124	0x3e129866	0.14315948
125	0xbd15a2ff	-0.0365324
126	0x3e02c7b1	0.12771489
127	0x3df40aa9	0.11916096
128	0x3e09b6e4	0.13448673
129	0x3e13b0b1	0.14422871
130	0x3d9718b9	0.07377762
131	0x3e466bb3	0.19377021
132	0xbd6247a6	-0.05524411
133	0x3e42a63d	0.19008727
134	0x3e24b8d7	0.16086136
135	0x3deb6771	0.11494339
136	0xbdf88afc	-0.12135884
137	0xbe148ab3	-0.14506035
138	0x3d8f6ea8	0.07003528
139	0x3dfe8109	0.12426955
140	0x3e278526	0.16359386
141	0x3d927941	0.071520336
142	0x3e5e8231	0.21729352
143	0xbcd3ae62	-0.025839988
144	0x3e4874cc	0.19575804
145	0x3e9e753a	0.30948812
146	0x3e6eeb42	0.23331931
147	0x3e09ac4c	0.13444632
148	0x3e2dc75b	0.1697058
149	0x3d5ed923	0.054406296
150	0xbd99d9d9	-0.07512254
151	0xbd8990df	-0.06717085
152	0x3d337503	0.043812763
153	0xbe4e3de1	-0.20140792
154	0xbe10d9f0	-0.14145637
155	0xbe29108c	-0.16510218
156	0xbdc14728	-0.094374
157	0xbe8dbe8b	-0.27684435
158	0xbd02ec5e	-0.0319637
159	0xbe0da31d	-0.13831754
160	0xbe16be73	-0.14721088
161	0xbd916313	-0.07098975
162	0x3dfd7d64	0.12377432
163	0x3e176304	0.14783865
164	0x3ca0b534	0.019617654
165	0x3e15fe75	0.14647849
166	0x3e537dd3	0.20653467
167	0x3e680fe6	0.22662315
168	0xbde5b47e	-0.11216067
169	0xbdcbc70c	-0.099500746
170	0xbc805a1c	-0.015667967
171	0xbd9a62fc	-0.07538411
172	0xbc46871a	-0.012117172
173	0x3cdb192d	0.026745403
174	0xbdb8473f	-0.08997964
175	0x3d0690e7	0.032853033
176	0x3d346bdc	0.044048175
177	0xbde20ff6	-0.110382006
178	0xbda9ebf7	-0.0829696
179	0xbd8150f5	-0.063142695
180	0xbe0307cb	-0.12795942
181	0x3d477df3	0.0487041
182	0x394b9031	0.00019413304
183	0xbe153e77	-0.1457461
184	0xbca422e2	-0.020036165
185	0xbe0547c6	-0.1301566
186	0x3cd5bdcd	0.02609148
187	0x3ccd7de3	0.025084442
188	0x3daebe34	0.08532372
189	0xbd9a478e	-0.07533179
190	0xbd947e79	-0.07250685
191	0xbcfdb43f	-0.030969737
192	0xbe18754a	-0.14888492
193	0xbe9890b7	-0.2979791
194	0xbe85b57b	-0.2611502
195	0x3e37a2af	0.17933153
196	0x3d740fc6	0.059585355
197	0x3d5f46d9	0.054510925
198	0xbe22f52e	-0.15913841
199	0xbe62eb61	-0.22160102
200	0xbe567dcb	-0.20946424
201	0x3d28f51e	0.041249387
202	0xbe6dd8fb	-0.23227303
203	0xbe871a0a	-0.26387054
204	0x3e7bfd68	0.24608386
205	0x3e7c6b1e	0.24650237
206	0x3e37198c	0.17880839
207	0xbe05b57b	-0.1305751
208	0xbd8df566	-0.06931572
209	0xbcf66b2e	-0.030080404
210	0xbe7ec686	-0.24880418
211	0xbe94d0c1	-0.29065517
212	0xbe6c58ff	-0.23080824
213	0xbda1fe55	-0.07909838
214	0xbe6c8fda	-0.2310175
215	0xbe4fa26f	-0.20276807
216	0xbe59204c	-0.21203727
217	0xbd29aa75	-0.041422326
218	0xbd0abaec	-0.03386967
219	0x3dc25b53	0.09490075
220	0x3d6de0c7	0.058075693
221	0xbeb4cf74	-0.35314524
222	0xbd48fc5e	-0.0490688
223	0xbdd9e50e	-0.10639392
224	0x3eb99d32	0.36252743
225	0xbdf37347	-0.11887222
226	0x3bd5aae2	0.006520615
227	0xbe0993c9	-0.13435282
228	0x3ec7a40a	0.3899234
229	0x3e0abaec	0.13547868
230	0xbdb2812e	-0.08716045
231	0x3e7a2ceb	0.24431197
232	0x3e2a87cf	0.1665337
233	0x3c399d32	0.011328982
234	0xbe687f78	-0.22704875
235	0x3d87c07c	0.0662851
236	0x3db0ade1	0.08626915
237	0xbc467ce7	-0.01211474
238	0x3e1d1489	0.15339865
239	0xbd360f30	-0.044448078
240	0xba321ecd	-0.0006794751
241	0xbe232202	-0.15930942
242	0xbeb1d504	-0.3473283
243	0xbd27efc0	-0.041000128
244	0x3e9dd94b	0.30829844
245	0x3d2ca4e5	0.042149443
246	0x3dcc71c8	0.099826396
247	0x3e4dfb4c	0.20115393
248	0x3e071452	0.13191345
249	0x3e9d1489	0.3067973
250	0x3b0150a1	0.0019731896
251	0xbe6e11f8	-0.23249042
252	0x3e8d9cc4	0.27658665
253	0xbea9f43d	-0.33194152
254	0xbe447869	-0.19186558
255	0x3f07a7e3	0.5299055

model.3.conv.bias f4 [16]
0	0x3f80e397	1.0069455
1	0x3e8dc9a9	0.27692917
2	0x3f202448	0.6255536
3	0xbf256f9a	-0.64623415
4	0x3fcf2169	1.6182071
5	0x3cd3500d	0.025795007
6	0x3f825a9a	1.0183899
7	0xc013bde6	-2.3084655
8	0x3ee10a8a	0.43953353
9	0x3fe00b1c	1.750339
10	0x3f07cf15	0.5305036
11	0x3f4f2a24	0.80923676
12	0x3eb69d6b	0.35666975
13	0x3c52cef0	0.012866721
14	0xbf50df27	-0.81590503
15	0x3f800388	1.0001078

model.4.cv1.conv.weight f4 [8, 16, 1, 1]
0	0x3d1ba0be	0.037995093
1	0xbd56379c	-0.052299127
2	0x3dcf427e	0.10120104
3	0x3e29b9d8	0.165748
4	0x3eaa8cc4	0.3331052
5	0x3ee3f2f8	0.44521308
6	0xbd18e1ab	-0.03732459
7	0x3e7eae33	0.24871139
8	0x3eb8a5de	0.36064047
9	0xbe650c32	-0.22367933
10	0x3d73254c	0.05936174
11	0x3e798dcd	0.24370499
12	0xbe2005a8	-0.15627158
13	0x3ea35158	0.31897998
14	0xbdb978ca	-0.09056242
15	0x3e49c459	0.19703807
16	0x3e8fcb1a	0.28084642
17	0xbf05b7fb	-0.52233857
18	0x3f105da4	0.56392884
19	0xbc4b70ac	-0.012417
20	0x3df2b563	0.11851003
21	0x3d2a9538	0.041646212
22	0x3e98f3c2	0.29873472
23	0x3e0a11b1	0.13483311
24	0x3dd0d229	0.10196335
25	0x3aff87e7	0.0019495458
26	0x3ddbed0e	0.10738574
27	0xbee3b603	-0.444748
28	0x3d98094a	0.07423647
29	0xbe5dfc9a	-0.21678391
30	0x3d92a7ce	0.071609125
31	0xbe6d3698	-0.23165357
32	0x3e71f616	0.2362903
33	0xbed1c898	-0.40973353
34	0x3e4fe5ee	0.20302555
35	0x3e0be5ca	0.13661876
36	0xbf1d3e50	-0.61423206
37	0x3e9a9a95	0.30196062
38	0xbde76729	-0.11298973
39	0xbdb25c2b	-0.08708986
40	0x3da5aa38	0.08089107
41	0xbe2d14b4	-0.16902429
42	0x3f011681	0.50424963
43	0xbeb1fba2	-0.34762293
44	0xbe2cd459	-0.16877879
45	0xbe70f4aa	-0.23530832
46	0xbdcf8565	-0.10132865
47	0x3f1b1b4b	0.6058852
48	0x3e801c11	0.25021413
49	0x3e48f2a8	0.19623816
50	0xbe6d5df4	-0.23180372
51	0xbf0876f0	-0.53306484
52	0x3f05adfb	0.522186
53	0xbe8e2447	-0.27762052
54	0xbf042e15	-0.51632816
55	0xbc6ea703	-0.014566186
56	0x3ea6905e	0.32532018
57	0x3eb6a197	0.35670158
58	0xbe844981	-0.2583733
59	0xbe2a501f	-0.16632126
60	0xbedd4cbc	-0.43222606
61	0x3dd1321c	0.10214636
62	0x3d8e3fb3	0.069457434
63	0x3d71a6d0	0.058996975
64	0xbea30f57	-0.3184764
65	0xbe2b3e91	-0.16723086
66	0x3e51f699	0.20504226
67	0x3e21541f	0.15754746
68	0xbe4a90d6	-0.19781813
69	0xbe968c10	-0.29403734
70	0xbdfb0b04	-0.122579604
71	0xbeae8cb7	-0.34091732
72	0x3dc58777	0.096449785
73	0xbed0b441	-0.40762523
74	0x3eeafd27	0.45896265
75	0x3ef76c48	0.483248
76	0xbede8e05	-0.43467727
77	0xbed7c96e	-0.42145866
78	0x3d02a306	0.031893753
79	0xbe8e2066	-0.27759093
80	0x3edc9811	0.43084767
81	0xbeabbf8a	-0.3354457
82	0x3d7a6d3e	0.061139338
83	0xbec5b1ba	-0.38612157
84	0x3e6f8088	0.23388875
85	0x3d61a2db	0.05508695
86	0x3f00e3d2	0.50347626
87	0xbe1039fa	-0.14084616
88	0x3e9d0abc	0.30672252
89	0x3b519077	0.0031976977
90	0x3d9437da	0.07237215
91	0x3e11111b	0.14166681
92	0xbddb8b27	-0.107199006
93	0xbe5d396a	-0.21603933
94	0xbe53c52f	-0.20680688
95	0xbe29db7e	-0.16587636
96	0x3e3d82c8	0.1850692
97	0xbe827544	-0.25480092
98	0x3f275b2a	0.6537348
99	0x3eded29d	0.4352006
100	0x3db0c28b	0.08630856
101	0x3eaf01b5	0.3418099
102	0xbed56b3c	-0.41683376
103	0xbb078ef6	-0.0020684577
104	0xbf3e779a	-0.7440125
105	0x3ece67e7	0.40313646
106	0xbe8bb3d7	-0.27285644
107	0xbf291bff	-0.66058344
108	0x3e3dab96	0.18522486
109	0x3e956cd3	0.2918459
110	0x3ee8b466	0.45450133
111	0xbf337831	-0.7010527
112	0x3c934c95	0.017980853
113	0xbe9b618d	-0.30347863
114	0x3e22f109	0.1591226
115	0xbee1139b	-0.4396027
116	0x3ee728e4	0.45148385
117	0xbe3cc061	-0.18432762
118	0xbdb7b60f	-0.08970272
119	0xbea4123f	-0.3204517
120	0x3d9de6b6	0.0771002
121	0x3e43e0a1	0.19128658
122	0x3d45ca10	0.048288405
123	0xbdd809ec	-0.105487674
124	0x3edd40bd	0.43213454
125	0xbe0af4e0	-0.13569975
126	0xbe2c10f7	-0.16803347
127	0x3e2ffa14	0.17185241

model.4.cv1.conv.bias f4 [8]
0	0xbe1df278	-0.15424526
1	0xbeac4086	-0.33642977
2	0x3e8180d5	0.25293604
3	0xbceb4ca0	-0.028723061
4	0x3f2ed10a	0.6828772
5	0xbeb4c4a7	-0.35306284
6	0x3ee75932	0.45185238
7	0xbe36e266	-0.17859802

model.4.cv2.conv.weight f4 [8, 16, 1, 1]
0	0x3eed8435	0.46389928
1	0xbe13fccb	-0.14451902
2	0x3e430db0	0.1904819
3	0xbd149017	-0.036270227
4	0xbe37c6aa	-0.17946878
5	0x3ea206d7	0.31645843
6	0xbe9de24d	-0.30836716
7	0x3ea06a68	0.31331182
8	0x3ecff124	0.40613663
9	0xbcc153cc	-0.023599528
10	0x3e8a5234	0.2701584
11	0x3e9d4f01	0.30724338
12	0x3b31cac7	0.0027128921
13	0x3e97531d	0.29555598
14	0x3d73452d	0.059392143
15	0xbd304bce	-0.043041043
16	0xbe5d2f17	-0.21599995
17	0xbe8010cc	-0.25012815
18	0x3efa8c71	0.48935273
19	0xbf05895e	-0.5216273
20	0x3e0415ca	0.12898937
21	0xbe90d043	-0.2828389
22	0x3f2df472	0.6795112
23	0xbec76963	-0.3894759
24	0x3e38c901	0.18045427
25	0xbebd9614	-0.37028563
26	0xbee48d93	-0.44639263
27	0x3efdacc4	0.49545872
28	0xbe6e0b23	-0.23246436
29	0xbf72bba0	-0.94817543
30	0x3e05c289	0.1306249
31	0xbe58b7c4	-0.21163851
32	0xbea26626	-0.31718558
33	0xbd8d2d2a	-0.0689338
34	0xbe25f545	-0.16206844
35	0xbe64b403	-0.22334294
36	0xbf16ee50	-0.58957386
37	0xbe039ea2	-0.12853482
38	0x3f2eca34	0.6827729
39	0x3e4a56f6	0.19759735
40	0xbf0500f5	-0.51954585
41	0xbf6756ea	-0.90366995
42	0x3e84259d	0.25809947
43	0x3ec0fb0c	0.37691534
44	0x3ed84ff5	0.42248502
45	0x3eec9cba	0.46213323
46	0x3f0182b5	0.5059007
47	0x3ea7ef73	0.32799873
48	0x3e5fd306	0.21857843
49	0x3e768c0a	0.24076858
50	0xbe4e0a93	-0.20121221
51	0xbda48c32	-0.08034553
52	0x3ec4d20c	0.38441503
53	0x3bf5ab3b	0.007497219
54	0x3dde1166	0.10843162
55	0xbc9727cf	-0.0184516
56	0xbdd8b06d	-0.105805255
57	0x3e37de11	0.17955805
58	0x3ec79096	0.38977498
59	0xbeaa79ae	-0.3329596
60	0x3e37de11	0.17955805
61	0x3d3ccea3	0.0460955
62	0x3c9e6683	0.01933599
63	0x3ee9980f	0.45623824
64	0x3ee63e3a	0.4496935
65	0x3f036ab0	0.5133467
66	0xbf1031eb	-0.5632617
67	0xbe8f41d4	-0.2797991
68	0x3dcf07fc	0.10108945
69	0xbefa682c	-0.48907602
70	0x3e88cf35	0.26720586
71	0xbf272c23	-0.6530172
72	0xbe076712	-0.13222912
73	0xbd71434a	-0.058902062
74	0x3edc6546	0.43046016
75	0x3efa2c26	0.48861808
76	0xbe56e2be	-0.20984933
77	0x3f7ae038	0.9799838
78	0x3d8676fb	0.065656625
79	0xbf3a29f8	-0.7272029
80	0xbea689c3	-0.3252698
81	0x3ee9bf66	0.45653838
82	0xbe6068b9	-0.21914949
83	0x3eb2b4e3	0.3490363
84	0x3e8b28ba	0.2717951
85	0x3d3c0b91	0.045909468
86	0xbe7faddf	-0.2496867
87	0xbd886664	-0.066601545
88	0xbe823eb7	-0.25438473
89	0xbe1546a1	-0.14577724
90	0xbd69e39f	-0.057101842
91	0x3f1c59c0	0.6107445
92	0xbec2d63e	-0.3805408
93	0xbe068f80	-0.13140678
94	0xbbbd75ca	-0.005781864
95	0x3e033c46	0.12815961
96	0x3f0d8445	0.5527995
97	0xbe64706f	-0.22308515
98	0xbf227f7b	-0.6347577
99	0x3ef5c7e7	0.48004076
100	0x3ed94e67	0.4244263
101	0x3f27be49	0.6552473
102	0xbef36d03	-0.47544107
103	0xbe9ef725	-0.3104793
104	0xbe2ffc67	-0.17186128
105	0x3e27d9b0	0.16391635
106	0x3f21db0f	0.6322488
107	0xbf150290	-0.58207035
108	0x3e6b137d	0.22956653
109	0x3e658279	0.22413053
110	0x3f0bb267	0.54569095
111	0xbe9d5c15	-0.30734316
112	0x3ef23deb	0.47312865
113	0xbde55d99	-0.11199493
114	0xbe93a7d7	-0.2883899
115	0xbec311af	-0.3809943
116	0x3e3e9dd6	0.18614897
117	0xbe8f52cc	-0.27992857
118	0x3dc0a98d	0.09407339
119	0xbe7ac932	-0.24490812
120	0x3ecde64a	0.4021476
121	0x3d9bb7e4	0.07603434
122	0xbeabf6cc	-0.3358673
123	0xbd2f17c5	-0.042747278
124	0x3e1a0898	0.15042341
125	0xbec8f737	-0.3925111
126	0xbbdbbd10	-0.0067058876
127	0x3f083934	0.53212285

model.4.cv2.conv.bias f4 [8]
0	0xbecad42a	-0.39614993
1	0x3d49df94	0.049285486
2	0x3ce3ceb8	0.027808532
3	0xbd119ff8	-0.03555295
4	0xbe4ef749	-0.2021152
5	0x3c6fe790	0.014642611
6	0xbe2945e4	-0.16530567
7	0xbd1343f8	-0.035953492

model.4.cv3.conv.weight f4 [16, 16, 1, 1]
0	0xbd5716d9	-0.052512024
1	0x3dc9018b	0.098147474
2	0xbde73d9b	-0.11291047
3	0x3e057229	0.1303183
4	0xbe0b7417	-0.13618504
5	0x3e412097	0.18860088
6	0x3dab75f7	0.083721094
7	0x3e78607b	0.24255554
8	0xbca03bce	-0.019559767
9	0xbe02322b	-0.1271445
10	0xbe048f41	-0.12945272
11	0x3e64493f	0.22293566
12	0xbddc9ab8	-0.10771698
13	0xbe42818f	-0.18994735
14	0xbcc08951	-0.023502978
15	0x3de9036c	0.11377606
16	0xbebfc034	-0.37451327
17	0xbe997d65	-0.2997848
18	0xbe50dfe5	-0.20397909
19	0xbdfe89bc	-0.124286145
20	0x3e8510ee	0.2598948
21	0x3bd69520	0.006548539
22	0xbe87bde2	-0.26512057
23	0xbdada55d	-0.08478806
24	0x3e218440	0.15773106
25	0xbd065093	-0.032791685
26	0xbe0151ff	-0.12628935
27	0x3de89922	0.11357333
28	0xbdf45eeb	-0.11932167
29	0x3e43accc	0.19108886
30	0xbce11b44	-0.027478822
31	0xbdc435ca	-0.09580572
32	0xbe90c793	-0.28277263
33	0x3ddc815c	0.10766861
34	0xbe278c1f	-0.16362046
35	0xb9b72491	-0.00034931724
36	0x3d14ddb9	0.036344264
37	0xbe5a2b90	-0.2130568
38	0x3e5cac10	0.21550012
39	0xbdbf262a	-0.09333451
40	0x3d35a445	0.044346113
41	0x3cdd56dc	0.027018957
42	0x3db3ce91	0.08779634
43	0xbe7c87c1	-0.24661161
44	0xbdb7fa11	-0.08983243
45	0x3dd7ab10	0.105306745
46	0xbe652dc2	-0.22380736
47	0x3df63128	0.120210946
48	0x3d8a1423	0.06742122
49	0x3ee84ea4	0.45372498
50	0x3d5613cd	0.052264977
51	0xbe0ab1cd	-0.13544388
52	0xbd55569b	-0.052084547
53	0xbe543ad0	-0.2072556
54	0xbd25ea86	-0.040506862
55	0xbed595ac	-0.41715753
56	0x3ecf2df9	0.40464762
57	0x3ea21903	0.31659707
58	0x3e22b6ac	0.15889996
59	0x3eb3f540	0.35148048
60	0xbe76595d	-0.24057527
61	0x3d8de5a6	0.069285676
62	0x3d82ef3e	0.06393288
63	0xbea05f8d	-0.313229
64	0xbee5cfcd	-0.44885102
65	0xbebbd2e5	-0.36684337
66	0xbde3e37c	-0.111273736
67	0xbefa7c33	-0.4892288
68	0xbf59a1cc	-0.8501251
69	0xbcd02d3e	-0.025412198
70	0x3e1cd04b	0.15313832
71	0xbe8b6cef	-0.27231547
72	0x3d73ea1f	0.059549447
73	0x3e1b9c98	0.15196455
74	0x3ebb57d0	0.36590433
75	0x3ed6443e	0.4184894
76	0xbef31cfd	-0.47483054
77	0xbea13885	-0.31488433
78	0xbe8704b5	-0.2637078
79	0x3e829c7c	0.25510013
80	0x3db2636a	0.08710368
81	0x3db7cdf5	0.0897483
82	0x3e84fc0e	0.25973552
83	0x3dcca99f	0.0999329
84	0xbe921f29	-0.28539398
85	0x3e9a88ba	0.3018244
86	0xbdce6423	-0.10077693
87	0x3dbaaf7b	0.091155015
88	0xbe01a487	-0.12660418
89	0xbdd956b9	-0.10612244
90	0x3e144fad	0.14483519
91	0x3d77fdf7	0.060544934
92	0x3da6fad3	0.0815331
93	0x3d8d481f	0.06898522
94	0x3cb52770	0.022113532
95	0x3c12b2aa	0.00895373
96	0xbe9a3cad	-0.30124417
97	0xbee5bb0d	-0.4486927
98	0x3edd5b3b	0.43233666
99	0xbe377c0c	-0.17918414
100	0xbe907ce3	-0.2822028
101	0xbe9cfc9e	-0.30661482
102	0x3e257c6f	0.16160749
103	0xbec15bd5	-0.37765375
104	0xbe41fbd2	-0.18943718
105	0xbed93b52	-0.4242807
106	0x3d847d25	0.06469182
107	0x3e2adc52	0.16685608
108	0x3d839d2a	0.06426461
109	0xbf04bd24	-0.51851106
110	0xbe865d1b	-0.2624291
111	0x3e98fcb4	0.29880297
112	0xbe0b5369	-0.13606037
113	0x3e0f06db	0.13967459
114	0x3e83b14d	0.25721207
115	0xbe19be80	-0.15014076
116	0xbdbc21dc	-0.09186146
117	0xbea576c0	-0.32317162
118	0x3ecd1852	0.40057617
119	0x3df7f6e8	0.121076405
120	0xbd35cf4e	-0.044387154
121	0xbe729137	-0.23688208
122	0xbe08a090	-0.133425
123	0xbdf3cd08	-0.11904341
124	0xbdd5bb07	-0.10436063
125	0xbe066426	-0.13124141
126	0xbe683c43	-0.22679238
127	0xbe58f80b	-0.21188371
128	0x3ea2850b	0.3174213
129	0xbe761039	-0.24029626
130	0xbedb197c	-0.4279288
131	0xbec3ac05	-0.38217178
132	0xbf02661b	-0.5093705
133	0xbd22399b	-0.039605718
134	0xbe70e807	-0.23526011
135	0xbccabe93	-0.024749076
136	0xbea0e620	-0.3142557
137	0xbeafa21d	-0.3430337
138	0xbef92857	-0.4866359
139	0xbe9be3a6	-0.3044712
140	0xbec8ae7f	-0.3919563
141	0x3df71843	0.120651744
142	0xbecba0e5	-0.3977119
143	0x3e281e66	0.16417846
144	0xbc6cd027	-0.014453924
145	0x3e8c5bfb	0.27413926
146	0xbe8494ad	-0.2589468
147	0x3ec11499	0.37711027
148	0xbed18076	-0.4091832
149	0xbf0a32d7	-0.53983825
150	0x3e381789	0.17977728
151	0xbeb47642	-0.35246474
152	0x3dd4c93c	0.10389945
153	0xbe8835f3	-0.2660366
154	0x3dc3801d	0.0954592
155	0x3ebe7cd4	0.3720461
156	0x3e822928	0.25422025
157	0x3d1e3ffb	0.038635235
158	0x3e5b8708	0.21438229
159	0x3de87ddf	0.11352133
160	0xbe9e5745	-0.30925956
161	0xbc8a0082	-0.016845945
162	0xbeaab20d	-0.33338967
163	0x3df717ad	0.12065063
164	0xbdbe472c	-0.09290919
165	0xbdf91c0c	-0.12163553
166	0xbe834744	-0.2564031
167	0xbe6775c9	-0.22603525
168	0xbd4b0d89	-0.049573455
169	0x3e62c0ea	0.22143903
170	0xbe56a6ad	-0.2096202
171	0xbaf13596	-0.0018402811
172	0x3e205ba4	0.15659958
173	0x3e4f975f	0.20272587
174	0xbd81c3fd	-0.0633621
175	0x3e92a89c	0.28644264
176	0x3e8961fd	0.26832572
177	0x3dfda136	0.12384264
178	0xbbd5d5c0	-0.006525725
179	0xbe65da19	-0.22446479
180	0xbe3dba18	-0.1852802
181	0x3ca9406a	0.020660598
182	0x3e71e7ed	0.23623629
183	0xbe9acda5	-0.3023502
184	0x3df4b68b	0.1194888
185	0xbe966d73	-0.29380378
186	0x3ddaf42c	0.10691103
187	0x3ec97361	0.3934584
188	0x3b29bf3a	0.0025901333
189	0xbe123785	-0.14278992
190	0x3d7b5169	0.061356936
191	0x3d0345f0	0.03204912
192	0xbe4246aa	-0.18972269
193	0xbe371ba1	-0.17881633
194	0x3c9b2054	0.018936314
195	0x3da7858c	0.08179769
196	0x3d2cad1a	0.04215727
197	0xbe7fc313	-0.24976759
198	0xbe4abe82	-0.19799235
199	0xbd95b9f0	-0.073108554
200	0x3d93e2ab	0.07220968
201	0xbe1987e5	-0.14993246
202	0x3d50a292	0.05093629
203	0xbe11ad25	-0.14226206
204	0x3e09938f	0.13435195
205	0xbceba287	-0.028764023
206	0xbd805f36	-0.0626816
207	0xbe4def60	-0.20110846
208	0xbeb7102a	-0.3575452
209	0xbe39883f	-0.1811838
210	0x3e2b8a76	0.16752037
211	0x3d91707b	0.07101532
212	0xbec7c23a	-0.3901537
213	0xbe8d711d	-0.2762536
214	0x3d66ae44	0.056318536
215	0x3e820983	0.25397882
216	0xbe0118b8	-0.12607086
217	0xbce07305	-0.027398596
218	0x3de4eac8	0.111775935
219	0x3cf1bb93	0.029508388
220	0xbe1c5fb0	-0.15270877
221	0x3d53a23a	0.051668383
222	0xbe4d0cae	-0.20024368
223	0x3df941e9	0.121707745
224	0xbe78c061	-0.24292137
225	0xbead8f4b	-0.33898386
226	0xbe881f05	-0.26586166
227	0xbe69a674	-0.22817403
228	0xbe24043e	-0.16017243
229	0xbcf7b3e9	-0.030237155
230	0xbba886a7	-0.005143005
231	0xbe24043e	-0.16017243
232	0x3d4486b8	0.04798004
233	0xbdef502d	-0.11685214
234	0x3e69a674	0.22817403
235	0xbea729a5	-0.3264896
236	0xbe1895f4	-0.14900953
237	0xbe672222	-0.22571614
238	0x3d50cbc9	0.050975595
239	0xbc2510b6	-0.010074785
240	0x3e4a2f1b	0.19744532
241	0x3e817406	0.2528383
242	0x3d4d358e	0.0500999
243	0xbe36e5fc	-0.1786117
244	0x3e5bd4bb	0.21467869
245	0x3f059ce5	0.5219253
246	0x3ebaae0c	0.36460912
247	0xbe8c4b24	-0.27401078
248	0xbe28c7e1	-0.16482498
249	0x3e9b6b64	0.3035537
250	0x3ea29ab6	0.3175866
251	0xbd91d6f7	-0.071210794
252	0x3e6e1bb4	0.23252755
253	0x3f0deea2	0.5544225
254	0xbe8e6fb5	-0.278196
255	0xbe60df7c	-0.21960253

model.4.cv3.conv.bias f4 [16]
0	0x3ebc357c	0.36759555
1	0x3eda55b8	0.42643523
2	0x3cd5f130	0.026115984
3	0xbe9757e9	-0.29559258
4	0x3f94f235	1.1636416
5	0xbe86873d	-0.26275054
6	0x3f51f3c2	0.8201257
7	0x3ecc046c	0.39847124
8	0x3f542c1b	0.828798
9	0x3ee0d818	0.43914866
10	0x3eb634f7	0.35587284
11	0xbe67d9b2	-0.22641638
12	0x3e55f834	0.20895463
13	0x3f26e3a6	0.65191114
14	0x3f448a9e	0.76774013
15	0xbf05a7b9	-0.5220905

model.4.m.0.cv1.conv.weight f4 [8, 8, 1, 1]
0	0xbf9c56ad	-1.2213951
1	0xbd17c9ad	-0.037057567
2	0x3ea23779	0.31682947
3	0xbe05de7b	-0.13073151
4	0xbd8d8c6c	-0.06911549
5	0xbc37d53b	-0.011220272
6	0x3c933cac	0.017973267
7	0x3f693a5c	0.91104674
8	0xbe2247ba	-0.15847674
9	0xbf796b66	-0.974295
10	0xbf30fa77	-0.6913218
11	0xbf262e01	-0.64913946
12	0xbe1934cf	-0.14961551
13	0x3da0ee2b	0.07857927
14	0x3d25bad1	0.040461365
15	0x3f18280b	0.594361
16	0xbd8adce4	-0.06780413
17	0x3da70650	0.08155501
18	0x3f0054af	0.50129217
19	0x3ec9065e	0.3926267
20	0xbe8071fe	-0.2508697
21	0x3ef6d101	0.48206332
22	0xbe9791ec	-0.29603517
23	0x3e9dddc9	0.3083327
24	0x3efa791d	0.48920527
25	0xbf1a8dd4	-0.6037266
26	0xbf64535f	-0.89189714
27	0x3f345dba	0.70455515
28	0xbf426335	-0.7593263
29	0xbeed6860	-0.46368694
30	0x3ee877e6	0.45403975
31	0xbebabd4f	-0.36472556
32	0x3f0649ed	0.5245655
33	0xbe280ee1	-0.16411926
34	0xbe9848e6	-0.29743117
35	0x3f374207	0.71585125
36	0xbe03b52a	-0.12862077
37	0xbd8af2f7	-0.06784623
38	0xbd8baa83	-0.06819632
39	0x3f8882ea	1.0664952
40	0xbe9b9f0a	-0.30394775
41	0x3ed94a96	0.42439717
42	0xbe35a63a	-0.17739192
43	0x3e46103c	0.1934213
44	0x3f131a00	0.5746155
45	0xbf279481	-0.65460974
46	0xbf15c253	-0.5849964
47	0xbf599aa0	-0.85001564
48	0x3ef524f9	0.4787977
49	0x3f4ff523	0.81233424
50	0xbf0e2893	-0.5553066
51	0xbe8d2a67	-0.27571413
52	0xbc47a759	-0.012185895
53	0x3f40409f	0.75098604
54	0xbd2cc1a4	-0.042176858
55	0xbeedec76	-0.46469468
56	0xbf32964c	-0.69760585
57	0x3f74178f	0.9534845
58	0xbf06f332	-0.52714837
59	0xbec2bde0	-0.38035488
60	0xbdde6bd5	-0.10860411
61	0x3ed81df3	0.4221035
62	0x3f91fb7e	1.1404874
63	0x3ef187eb	0.4717401

model.4.m.0.cv1.conv.bias f4 [8]
0	0x3ed0df4f	0.4079537
1	0x3ef6b870	0.4818759
2	0xbdd0805c	-0.101807326
3	0x3e909039	0.28235033
4	0xbde51f38	-0.11187595
5	0x3ea3196a	0.31855327
6	0xbd86b066	-0.06576614
7	0xbe8b727e	-0.27235788
